DDE_II_Advanced_Topics/GraphLevelGAT.ckpt (torch, 95839 bytes, 4 tensors)

model.layers.0.weight f4 [16, 1433]
00000000: a0d7 38bc a87e 96bb 6dd5 68bc 2ca3 6bbd
00000010: 8f03 d73d 6a16 95bc cdfb 373b 4e47 663c
00000020: bcb2 e9ba 04d5 d93b a36b 0a3c 1706 5dbc
00000030: 2bb1 e43d 33c4 403c a6f7 4a3c ecad 723d
00000040: 3ed4 c83b 2079 8c3c 3823 b53b 9a34 b73c
00000050: 39be 853c e335 6cbc ee6b 923c 543f da3b
00000060: b3ce a9bb ccdc 1abd 985a 35bc f7fa 4b3d
00000070: ec90 b53a 40a6 2cbc 1cbb 303b ab15 79b7
00000080: d9c5 a93c 1f85 31bc 8935 723b f1e3 233d
00000090: e8cd 4ebc 3e42 9bbc b14b 993c f746 f53d
000000a0: 4e9e fb3c 51f4 763d 4a9d 9b3c 5bb1 1f3c
000000b0: 8bea 583d 6445 47bd 7047 da3b b623 16bc
000000c0: 35cd 9f3d 9d3a ab3c 5225 b1bc 7426 6b3e
000000d0: 0401 05bc 1a6e 383c 00e4 a7bc 38df 443c
000000e0: fc93 3fbd d791 23bc 5279 ab3d cdff bd3c
000000f0: ddfb 373b 3484 39bc 4f46 d6bb 4c13 42bb
00000100: c8f8 de3c 3c59 96bc 350f 153c 10e2 df3b
00000110: 07cb 08bc 00e1 64bc 7a65 8fbc 0f0b 033c
00000120: 39ec 02bc de33 c2bc 8af8 9dbc 5341 2cbc
00000130: 2978 eabc 967b a43d be13 00bc 2021 bfbb
00000140: 8035 b73c 8901 8c3c ba9e 743d 56ec a6bc
00000150: 328c c43c 0975 72bc 652d f5bb 8938 88bc
00000160: 5eff 7b3d 7061 ee3c 4826 93bc b031 58bc
00000170: b083 38bc e07b af3d a44b 413c 9417 99bc
00000180: 87aa d73b 81a0 14bc cf72 e43a f488 b13c
00000190: 8b09 833b e701 993c 43ae db3c d461 333d
000001a0: 86fa 0a3d 142d 5bbc 453b 25bc aea4 553c
000001b0: 1986 b1bc ac1a 8bbc 82ba 36bc 4836 bf3c
000001c0: 776e 4c3c 8153 5c3b b810 acbc 1deb c0bc
000001d0: a616 57bc 4bc4 c8bc 334b 143d 4dd4 8fbc
000001e0: cbc6 9cbc 16c7 25bd 0682 1dbc 7d66 ec3c
000001f0: d2c0 1a3d 01b1 723d 974b b53b 404f a5bb
00000200: cac1 413d d498 5e3d 6319 8abd df6e d23c
00000210: 1369 c7bd acb0 843d 9329 083c 3fa5 063e
00000220: e52a b8bc 2ad6 41bc 6a4c aa3c 1b8d 13bd
00000230: 161b f5bc 51cf 833c 9cef a53b 0b4d f5bc
00000240: 1a2a 5d3c 9165 0a3c c9b2 d3bc aab7 3ebc
00000250: 1d42 96bb 9fad c8bb e5b5 3f3c 3b03 303d
00000260: 1db4 933c 7e45 ff3c 9b0a b93c 2d4a 7a3c
00000270: 7726 05bc 336c 30bc 4156 89bc eb0a e43b
00000280: dd58 29bd b64e 78bc 4e3d 493d ed66 8aba
00000290: 6d7f 333c 3fc4 523c 19be d7b9 015b b5bc
000002a0: f5c1 7cbd 36b0 c93c 647a 8bba 559c 823c
000002b0: 295c 183d af86 9ebc 79b2 a8bc ff81 a9bc
000002c0: 7544 c1bc 0439 39b9 2efa 39bb a503 a9bb
000002d0: aff3 833c b1e3 043c 06f5 543c f808 5cbc
000002e0: 27b6 9d3c 4173 a4bc 2f5d cfbc 9eb7 8a3c
000002f0: 0e89 69bc 5bcd 8a3a 486c 863c 026b 033c
00000300: b735 3e3d eb22 c4bc 30d5 c9bc 2900 133c
00000310: 07fa 1abd f9dd 303b 74bf 34ba 0132 753c
00000320: 7ea3 723c 758b d5bb cb8d 11bb 118b 28bd
00000330: 0bc5 3abc 2be3 2e3d aae8 a83c e955 13bd
00000340: 2cde fabc 096e 8cbc f16e c2bb 2122 3dbc
00000350: c653 b33b 85ef dbbc 5ae3 babc cf37 1c3c
00000360: 8ae7 c43c c861 e7bc 8ec0 26bb f143 c53c
00000370: f8eb e43a b095 e7bb 6e10 b73a 3227 16bc
00000380: bd66 8e3c 2475 f4bc facf d53c 4021 dabb
00000390: 11f5 ffbc f689 9abc 6d96 35bc 2fa2 653c
000003a0: a508 9f3d 20f1 97ba d46f 29bc 0a23 fd3a
000003b0: a7e7 e7bb e264 ceba c853 b6bb 32ee c7bc
000003c0: 4d71 d7ba 02f9 c3bc 3af7 d4bc 1d75 803c
000003d0: 15b1 463c c0f5 65bc f865 19bc 5c12 15bd
000003e0: 97c5 a83c f122 bdbc 563d 3dbc d2d2 ca3c
000003f0: d4e9 ba3b 916a 8bbc a53b b5bc 18e0 eebb
-0.011281878 -0.0045927353 -0.014211041 -0.05752866 0.104987256 -0.018199164 0.002807367 0.014055086
-0.0017829756 0.006647708 0.008448514 -0.013490221 0.111666046 0.011765528 0.012388146 0.059247896
0.006128817 0.0171476 0.00552788 0.02236395 0.016326057 -0.0144171445 0.01787373 0.0066603813
-0.005182111 -0.037808225 -0.0110689625 0.049799886 0.0013852394 -0.010537684 0.0026966995 -1.48466015e-05
0.020724224 -0.010834961 0.003695818 0.040012304 -0.012622334 -0.018952485 0.01871285 0.11976426
0.030715134 0.060291592 0.0189959 0.009746875 0.052958053 -0.04865016 0.006661348 -0.009163788
0.07802812 0.020901972 -0.021624241 0.22963887 -0.008117918 0.011256719 -0.020494461 0.01201611
-0.04677199 -0.009983501 0.083727494 0.023193264 0.0028073706 -0.011323024 -0.006539143 -0.0029613553
0.027218238 -0.018353097 0.009097864 0.0068323687 -0.008349187 -0.01396966 -0.017504442 0.007998242
-0.00799089 -0.023706373 -0.019283552 -0.010513621 -0.02862175 0.08031385 -0.007817207 -0.005832806
0.022364378 0.017090576 0.059721686 -0.020376366 0.023992632 -0.014798411 -0.007482218 -0.01662852
0.061522834 0.029099196 -0.01796259 -0.01319544 -0.0112618655 0.08568549 0.011797819 -0.018688
0.0065816077 -0.00907147 0.0017429235 0.02167175 0.0039989403 0.018677665 0.026816493 0.043794468
0.033930324 -0.013377447 -0.010084932 0.013039751 -0.021670388 -0.016980492 -0.011152865 0.023341313
0.012477509 0.0033619108 -0.021004066 -0.02354961 -0.013127958 -0.024507662 0.036204528 -0.017557288
-0.01913776 -0.040473066 -0.00961352 0.028857464 0.037781544 0.059250835 0.0055326927 -0.0050448477
0.047303952 0.054344967 -0.067431234 0.025687633 -0.09736838 0.0647901 0.008310693 0.13148974
-0.022481391 -0.011830846 0.02078839 -0.03602324 -0.029920142 0.016090067 0.005063964 -0.029943964
0.013498807 0.008447067 -0.025842087 -0.011640469 -0.004585518 -0.006124213 0.011701082 0.04297183
0.01803022 0.031161066 0.022588065 0.015276474 -0.0081268465 -0.010767984 -0.016764762 0.0069593093
-0.041344512 -0.015155485 0.04913073 -0.0010559239 0.010955674 0.0128641715 -0.0004114963 -0.02213812
-0.06170841 0.024620157 -0.0010641334 0.015943686 0.037197266 -0.019351332 -0.020592915 -0.02069187
-0.023592213 -0.00017664215 -0.0028377878 -0.005157905 0.016107408 0.0081109265 0.012997871 -0.013429873
0.019251896 -0.020074489 -0.025312988 0.016933259 -0.014253868 0.0010589765 0.016409054 0.008021118
0.046437945 -0.023942431 -0.024637789 0.008972206 -0.0378361 0.0026987775 -0.0006894984 0.014965535
0.014809487 -0.0065168687 -0.002220976 -0.04114825 -0.011399518 0.042697113 0.020618755 -0.035970602
-0.030623518 -0.017142313 -0.0059336354 -0.0115437815 0.005472633 -0.02684761 -0.022813488 0.00953479
0.024036188 -0.028244868 -0.0025444361 0.024080249 0.0017465344 -0.0070674047 0.0013966688 -0.009164618
0.017382974 -0.029841013 0.026100148 -0.0066567957 -0.031244786 -0.018864613 -0.011083228 0.014015718
0.07765321 -0.0011592247 -0.010341603 0.0019312811 -0.0070771757 -0.0015746618 -0.0055641867 -0.024405573
-0.0016436965 -0.023922447 -0.025996793 0.015680844 0.012127181 -0.014035642 -0.00936269 -0.036394462
0.02060203 -0.02308795 -0.011550268 0.02475873 0.005704144 -0.017018588 -0.022123167 -0.0072898977

model.layers.0.bias f4 [16]
00000000: 16ce 6d3e 5e1b 4c3d 1ba1 c13e e0ca 483e
00000010: e756 a63e fcd6 e53e bd78 963e c5eb 653e
00000020: 6a27 d03e e798 8d3e 1cab 8e3e 5e85 753e
00000030: 467c 723e e48b 4f3e fda3 583e 8d94 ae3e
0.23223147 0.049830787 0.37818226 0.1960864 0.32488176 0.44890583 0.2938899 0.2245322
0.4065507 0.27655718 0.2786492 0.23976657 0.23680219 0.20268208 0.21156307 0.3409771

model.layers.3.weight f4 [7, 16]
00000000: 7777 85be d6fa 643e a4c7 7b3c 3c59 053f
00000010: 2fb3 1ebf 7780 a7be 49b8 9c3e 4793 2a3f
00000020: e310 043f e700 cd3d 0f4e be3e fd95 c7bc
00000030: da97 a43e c9d7 bdbe 1e80 98be 06a0 a5be
00000040: c3b9 9dbe aed3 083f 3ce5 1d3f 152d 6ebe
00000050: c6cc 74be 938b bebe 9d14 0b3e 005d 1f3f
00000060: 1e50 40bf 410b 383f ae5a 9ebe e674 87be
00000070: 0c3d 163f 021a 233e 20c0 f3bd ed38 0cbf
00000080: 51b2 8ebe 59b1 1dbe fc7b dc3e ecea 75be
00000090: 6c53 12be 0dc4 2f3f 8143 1abf 8b2b c93e
000000a0: 9fe7 17bd 5747 0c3e a0ff 1abf 822c ebbe
000000b0: ee6d 013e 1284 3abe fdc4 9cbe 4cc8 f53e
000000c0: 803a 9fbd aba6 35be 420d c5be a144 253e
000000d0: 2115 debe 4d19 693f ebe0 fa3e e3a7 cbbe
000000e0: 38b8 aa3e a6b1 00bf 8699 0cbd 20a2 a1be
000000f0: 747c 11bf 8dd5 b3be 22bc ff3d 10a5 a53e
00000100: a8e3 173f 73b9 0abe c69a 61bf 83b2 38be
00000110: 6660 d23e 7705 c13e 0348 86bc b100 1ebf
00000120: b223 913e b70d b53e 2fe9 833d 2ce0 753e
00000130: 941d 42be 8025 d33e 7cb3 193f eba1 eb3e
00000140: 051d a13e c330 72be 4562 11bf 977f da3e
00000150: b523 643f dbb0 29bf 7132 123f fe1e acbd
00000160: 3f17 0dbf 005c 9fbe 5a62 f2be 0b75 413e
00000170: 85db e93d 89ee ce3c acfe cbbd 3141 01be
00000180: 3ba2 b6be b5ab 76be c928 4b3f 0b20 ecbe
00000190: 97c0 b6bd b681 10bf 849f c1bd fe88 33bf
000001a0: 3123 c73e 6151 173d 509a 5a3f dafc 093f
000001b0: eace 0bbf 63e0 95bd 49e5 d13d dece ddbd
-0.26067707 0.22361311 0.015367422 0.52089286 -0.6199216 -0.32715198 0.30609348 0.6663098
0.5158827 0.10009938 0.3716893 -0.024363512 0.32147104 -0.37078694 -0.29785246 -0.3234865
-0.30805787 0.53448 0.6167791 -0.23259385 -0.2390624 -0.37215862 0.13582082 0.6225128
-0.7512225 0.7189217 -0.30928558 -0.26456374 0.586869 0.1592789 -0.11901879 -0.5477436
-0.2787042 -0.15399684 0.43063343 -0.24015397 -0.14289635 0.68658525 -0.6025925 0.39291033
-0.037086125 0.13699089 -0.605463 -0.45932394 0.12639591 -0.18214443 -0.3061904 0.48004377
-0.0777483 -0.1773936 -0.38486677 0.16139461 -0.43375495 0.9105423 0.48999724 -0.39776525
0.33343673 -0.5027107 -0.0343261 -0.31569004 -0.56830525 -0.35123864 0.12487055 0.32352495
0.5933175 -0.13547306 -0.8812679 -0.18036847 0.4108917 0.37699482 -0.01639176 -0.61719805
0.28347546 0.35362026 0.064409606 0.24011296 -0.18956596 0.41239548 0.60039496 0.4602197
0.31467453 -0.23651414 -0.5679057 0.42675468 0.89116985 -0.66285485 0.5710822 -0.08404349
-0.55113596 -0.31124878 -0.4734066 0.18892305 0.11418823 0.025260227 -0.09960684 -0.12622525
-0.35670647 -0.24088939 0.7935911 -0.46118197 -0.08923452 -0.56447923 -0.09454253 -0.7013091
0.38894036 0.036942843 0.8539171 0.53901446 -0.546126 -0.07318189 0.10248811 -0.108304724

model.layers.3.bias f4 [7]
00000000: f426 b8be 457a a5be 25a2 613e da95 833e
00000010: 8381 a8be 49bd f43e 875a 9d3c
-0.3596722 -0.32319847 0.2203451 0.25700265 -0.3291131 0.47800663 0.019208206
