PretrainedModels/GraphLevelGAT.ckpt (torch, 548731 bytes, 16 tensors)

model.GNN.layers.0.att_src f4 [1, 1, 256]
-0.011854939 -0.02977664 -0.10314741 -0.0047990195 -0.0028155653 0.025956335 -0.013673475 -0.008562243
-0.020353226 -0.12998348 -0.017894348 -0.022940174 0.013750874 -0.05554238 0.008123211 -0.0029514688
0.031806756 -0.0007061364 0.007247839 0.014514939 0.016071083 0.09901053 -0.015899094 0.0048241243
-0.0055055637 -0.004314165 0.018431382 -0.016861426 0.03668274 -0.0030819594 -0.011697591 -0.055418815
-0.010830955 0.0099997055 -0.01084133 -0.015540153 -0.05007451 -0.01317049 -0.004832848 -0.021061348
-0.008059518 -0.0073921527 -0.21338734 -0.015048114 -0.014485933 0.010805624 -0.0032813859 -0.0097997915
-0.011632832 0.043430556 -0.0150082875 -0.015978623 0.006273193 -0.0062586903 -0.021457592 0.026259195
-0.0005263549 -0.0115676075 0.021544326 -0.05810393 -0.009493106 -0.027141044 -0.0011635327 -0.01023174
-0.009239648 0.023867777 0.007806804 -0.005716513 0.008212806 -0.015334172 -0.018108835 -0.005149039
0.0067573152 -0.0046724 -0.22287679 0.002861855 -0.004194053 -0.009947552 -0.012468239 0.011176368
-0.006090652 -0.0009387884 -0.0026880386 -0.014369026 -0.0417624 -0.0017143921 -0.0070710587 -0.001148565
-0.014582515 0.0075770565 -0.0100113265 -0.0130324345 0.0092598675 -0.0015750133 0.0014613224 0.020791564
-0.0140120275 -0.004502082 0.13899755 -0.008619334 -0.007555983 -0.0038485087 -0.038389217 -0.0078807995
0.00912824 0.0692498 0.00073522655 -0.029509535 -0.0018202319 0.008062305 -0.0060652713 0.024358718
-0.015227433 -0.009888477 0.0003088158 -0.019296175 0.021746144 -0.018232835 -0.025166295 -0.023928264
-0.002941538 0.006115977 0.007952956 -0.003913932 0.0042866734 -0.0071713426 0.0034351135 -0.004953988
-0.014823981 -0.0027145778 0.00939591 -0.031586412 0.014684131 -0.011501886 -0.005296087 -0.07133712
-0.014193505 0.16527767 -8.6931424e-05 -0.12705363 -0.09366238 -0.012861749 0.0041384315 0.007843681
0.0032461833 0.14941025 -0.015049271 0.0150671955 0.0453288 0.057624776 -0.024730174 0.008407541
0.0006798074 0.0043300716 -0.0033280873 -0.015372049 -0.02017322 -0.016856015 0.00012802723 -0.0036849603
-0.0043405485 -0.009727975 -0.0017107122 -0.025942542 0.0027911067 0.005713305 -0.016526759 -0.0067669894
0.033632703 0.015759535 -0.0079673445 -0.0025850865 -0.016498491 -0.004444492 -0.1643042 0.014339747
-0.009210741 0.057390857 0.019557994 -0.023410173 -0.008650856 0.0018788655 -0.006304873 0.0012422887
-0.12243529 -0.0018549417 0.07286686 -0.017152924 -0.02989702 -0.017914336 -0.008165191 -0.05993698
-0.009646881 0.001541042 -0.009082833 -0.005112454 -0.0015921874 0.001383712 0.0049033975 -0.013899384
-0.026207881 0.007043857 0.00046038278 -0.03138317 0.04833601 0.022296824 -0.022026861 -0.007452679
0.00018498543 -0.007410252 -0.022650776 -0.016613694 -0.020898065 -0.013348104 -0.033539325 -0.030691233
0.0015508566 -0.0035992656 0.008034096 0.0056422413 -0.032868933 -0.009585293 0.018823268 -0.0077295606
0.010236217 -0.009808712 -0.011005424 -0.017470978 -0.006893137 -0.015931137 0.05623392 -0.007937654
0.011106654 0.01506619 -0.020089796 -0.011407364 0.0077829356 0.023412088 -0.02064712 0.0016868305
0.028637609 -0.006308434 0.005831262 -0.017448172 0.009254635 0.0059318244 0.019326942 -0.0073664314
-0.010486749 0.00015326444 -0.01859894 -0.0054605957 0.0010610169 -0.0058525326 -0.008101782 -0.011012641
00000000: 383b 42bc 24ee f3bc f33e d3bd 1841 9dbb
00000010: 5985 38bb 61a2 d43c b606 60bc a648 0cbc
00000020: cfbb a6bc 641a 05be 2b97 92bc 08ed bbbc
00000030: 594b 613c 6880 63bd 3717 053c 6e6d 41bb
00000040: cd47 023d 031c 39ba 487f ed3b 11d0 6d3c
00000050: 81a7 833c 08c6 ca3d d13e 82bc b013 9e3b
00000060: 0468 b4bb d75d 8dbb 69fd 963c f920 8abc
00000070: a440 163d b3fa 49bb 41a7 3fbc d7fe 62bd
00000080: 5174 31bc ced5 233c d59f 31bc 209c 7ebc
00000090: ee1a 4dbd 0ac9 57bc de5c 9ebb d988 acbc
000000a0: 120c 04bc df39 f2bb 3682 5abe 5d8c 76bc
000000b0: 6856 6dbc 120a 313c 850c 57bb 4e8f 20bc
000000c0: a297 3ebc 3de4 313d 52e5 75bc 9ae5 82bc
000000d0: 5b8f cd3b b315 cdbb d5c7 afbc 861d d73c
000000e0: 14fb 09ba 1086 3dbc ba7d b03c 63fe 6dbd
000000f0: f988 1bbc e556 debc ae81 98ba 07a3 27bc
00000100: e461 17bc 5b86 c33c 38d0 ff3b 9651 bbbb
00000110: 018f 063c 2e3c 7bbc fb58 94bc 45b9 a8bb
00000120: 786c dd3b ef1a 99bb d039 64be f68d 3b3b
00000130: 446e 89bb 0ffb 22bc 9647 4cbc 161d 373c
00000140: 1894 c7bb 0619 76ba ce29 30bb 106c 6bbc
00000150: 0d0f 2bbd 74b5 e0ba 57b4 e7bb 728b 96ba
00000160: 80eb 6ebc f548 f83b 8c06 24bc fe85 55bc
00000170: b3b6 173c ad70 ceba d889 bf3a 1253 aa3c
00000180: b492 65bc 3386 93bb 6055 0e3e 1b38 0dbc
00000190: 2e98 f7bb 4337 7cbb 033e 1dbd 781e 01bc
000001a0: 9d8e 153c d7d2 8d3d 38bc 403a fbbd f1bc
000001b0: d994 eeba c217 043c 2fbf c6bb ef8b c73c
000001c0: 7c7c 79bc 4703 22bc 8ee8 a139 0313 9ebc
000001d0: f824 b23c 075d 95bc 8c29 cebc 3505 c4bc
000001e0: d2c6 40bb 8968 c83b 1d4d 023c 7140 80bb
000001f0: 3977 8c3b 95fd eabb a41f 613b 1055 a2bb
00000200: 48e0 72bc 0fe7 31bb 4ef1 193c c160 01bd
00000210: b695 703c 6872 3cbc cc8a adbb 3219 92bd
00000220: e08b 68bc 8d3e 293e f44e b6b8 591a 02be
00000230: 10d2 bfbd 16ba 52bc ae9b 873b c882 003c
00000240: ebbd 543b 00ff 183e 3891 76bc 66dc 763c
00000250: b1aa 393d f507 6c3d ef96 cabc c8bf 093c
00000260: 1a35 323a 46e3 8d3b 0a1c 5abb 0cdb 7bbc
00000270: 4f42 a5bc a015 8abc 0c3f 0639 607f 71bb
00000280: 293b 8ebb 1662 1fbc fa39 e0ba 7485 d4bc
00000290: 00eb 363b ad36 bb3b 2063 87bc 9fbd ddbb
000002a0: 72c2 093d 241a 813c 7789 02bc 8e6a 29bb
000002b0: d827 87bc 1aa3 91bb 5c3f 28be 42f1 6a3c
000002c0: a6e8 16bc ad12 6b3d 1638 a03c b1c6 bfbc
000002d0: 52bc 0dbc 4444 f63a 1c99 cebb 4bd4 a23a
000002e0: 5abf fabd 8421 f3ba 383b 953d 4a84 8cbc
000002f0: 98ea f4bc 16c1 92bc 4bc7 05bc 7b80 75bd
00000300: f40d 1ebc cafc c93a 2ad0 14bc 5f86 a7bb
00000310: f2b0 d0ba ac5d b53a aeac a03b 3eba 63bc
00000320: e9b1 d6bc 28d0 e63b 885f f139 a48b 00bd
00000330: fbfb 453d d4a7 b63c ad71 b4bc 9a35 f4bb
00000340: a6f8 4139 b3d1 f2bb 1f8e b9bc 7119 88bc
00000350: 6b32 abbc 02b2 5abc 8860 09bd 2e6c fbbc
00000360: 1d46 cb3a a8e1 6bbb 71a1 033c 8de2 b83b
00000370: 93a1 06bd a20b 1dbc 4133 9a3c 4148 fdbb
00000380: ceb5 273c b8b4 20bc 1850 34bc 4c1f 8fbc
00000390: d3df e1bb 0482 82bc 8a55 663d ef0c 02bc
000003a0: aff8 353c 2ed8 763c 5b93 a4bc f4e5 3abc
000003b0: ff07 ff3b b5ca bf3c 2624 a9bc a418 dd3a
000003c0: 6b99 ea3c fbb6 cebb 2c14 bf3b 78ef 8ebc
000003d0: c1a0 173c c05f c23b 8953 9e3c 1b62 f1bb
000003e0: 9dd0 2bbc 9cb5 2039 ce5c 98bc ccee b2bb
000003f0: d211 8b3a 9ac6 bfbb 56bd 04bc 5d6e 34bc

model.GNN.layers.0.att_dst f4 [1, 1, 256]
-0.10570987 -0.059943054 0.56169724 -0.6903496 -0.15517461 -0.4642322 0.017323865 0.11761098
-0.13829239 0.09796431 0.10838049 -0.26368406 -0.23218809 -0.25020003 -0.22031672 -0.25426257
-0.013356518 -0.2955297 -0.27713218 -0.16662392 -0.17870638 -0.10571237 -0.08392149 -0.0125254225
0.30209428 0.14696477 -0.4738998 -0.17770939 0.7112561 -0.36766228 -0.081201546 0.20029673
0.0048286757 -0.25569192 -0.15409406 0.051110152 -0.7453419 0.03975033 0.6977289 -0.16291185
0.0008907143 0.07777736 -0.116312936 0.2312673 -0.16020547 0.12180498 -0.23501086 0.28929627
0.30383784 0.37607554 -0.33815187 0.39388072 -0.10599823 -0.09020893 -0.13816628 -0.35876697
0.26656154 -0.101713195 -0.48661205 0.5313226 -0.31646913 0.39822105 0.55468786 -0.05991792
-0.46918997 0.15274946 -0.4001557 0.06695008 -0.30342764 -0.2707171 -0.019268729 0.0590072
-0.43229115 -0.17518567 0.3544159 -0.060988124 0.26141682 0.12246628 0.0827886 0.06781625
0.09963619 -0.059500378 0.037101578 0.32490298 0.22496149 0.21629208 -0.25607887 0.2825905
-0.18186136 0.16023766 0.23209593 0.06091502 -0.29157397 0.009064687 0.2389638 -0.36795303
0.023564197 -0.091535084 0.32294723 0.34347937 0.15809886 -0.00028701185 0.12202347 -0.23105085
-0.13641381 -0.027845558 0.49284136 0.116056204 -0.50399446 0.3121596 0.05586512 -0.3222839
-0.15395927 0.28349254 -0.044723522 0.07263239 -0.30931544 -0.11989165 -0.0073440974 -0.12831122
-0.050675347 -0.38295192 0.13250235 -0.52879554 0.56643206 -0.032442696 -0.40395468 0.10641955
-0.092364945 -0.07530412 0.31758147 0.17529927 -0.4461164 -0.18274729 -0.41051066 0.7264021
0.42783934 -0.04455439 -0.07763708 -0.11386195 0.42883277 0.3391307 -0.15935577 -0.26353186
0.101103306 0.2126875 -0.06099781 0.5394549 0.5928259 0.44315466 0.00874142 -0.21758823
0.16566813 -0.12515433 0.06958753 -0.14777923 -0.014531362 -0.12464827 -0.25136688 0.22724727
0.23140685 -0.13521013 0.041880902 0.58458513 -0.07619111 -0.048198257 -0.18069582 -0.22067098
0.30022877 -0.22485584 -0.29664308 0.55267614 0.54933035 -0.37398112 -0.042963676 -0.3279811
0.08250506 0.08556166 0.39851773 0.037330557 0.34836635 -0.3012894 0.2244112 0.002698318
0.10069346 -0.087950625 -0.54920936 -0.12417019 -0.022988863 -0.2064183 -0.3001369 0.062176522
-0.22096689 0.06928324 -0.35862735 -0.124095984 0.22210576 0.13463846 -0.41942576 -0.13588724
-0.16529807 -0.38383988 0.5297679 -0.20593812 -0.14601882 -0.11513562 -0.0036268642 -0.21110523
0.04600756 -0.008517345 0.036508914 -0.34510216 -0.16595268 -0.18142359 0.2242972 0.41056603
-0.076397456 -0.4686092 -0.022805171 -0.16360487 0.10967566 -0.0106764315 0.5919418 0.30424193
-0.14094497 0.1244643 0.012072812 -0.37569642 0.22452536 0.2116083 0.39162943 -0.24318795
0.20117979 0.08625359 0.35300735 -0.20165898 -0.3493173 0.52016157 -0.0672759 -0.0016050745
-0.32885638 -0.005142927 -0.21453425 0.09041671 -0.03439927 0.27298746 0.49861678 -0.42563576
-0.03374494 -0.005238798 0.25470862 -0.12141542 0.040999465 0.05047565 0.24415252 -0.023256002
00000000: 6b7e d8bd d986 75bd 64cb 0f3f c0ba 30bf
00000010: 18e6 1ebe d8af edbe c7ea 8d3c 07de f03d
00000020: 859c 0dbe 83a1 c83d 97f6 dd3d 9901 87be
00000030: b7c2 6dbe 381a 80be b59a 61be b42e 82be
00000040: 4cd5 5abc ab4f 97be 45e4 8dbe 769f 2abe
00000050: cefe 36be ba7f d8bd 08df abbd 6e37 4dbc
00000060: 1aac 9a3e ef7d 163e ffa2 f2be 73f9 35be
00000070: e114 363f 3b3e bcbe ff4c a6bd 961a 4d3e
00000080: de39 9e3b 0dea 82be d5ca 1dbe e158 513d
00000090: bace 3ebf 3ed1 223d 5c9e 323f 5dd2 26be
000000a0: d37e 693a bd49 9f3d 7a35 eebd 56d1 6c3e
000000b0: e70c 24be e474 f93d b0a6 70be a41e 943e
000000c0: a290 9b3e f98c c03e 3e22 adbe bcaa c93e
000000d0: 9a15 d9bd 76bf b8bd 767b 0dbe 4eb0 b7be
000000e0: c17a 883e 024f d0bd 3725 f9be c204 083f
000000f0: 3e08 a2be a1e3 cb3e 0600 0e3f 7e6c 75bd
00000100: ab39 f0be 5b6a 1c3e 35e1 ccbe 201d 893d
00000110: de5a 9bbe 6f9b 8abe 74d9 9dbc 89b1 713d
00000120: 4455 ddbe df63 33be 0076 b53e afce 79bd
00000130: 6dd8 853e 9acf fa3d 128d a93d 3fe3 8a3d
00000140: 0f0e cc3d abb6 73bd d3f7 173d af59 a63e
00000150: 4e5c 663e ac7b 5d3e c51c 83be b4af 903e
00000160: dd39 3abe 5715 243e 8eaa 6d3e 0782 793d
00000170: 2f49 95be 0e84 143c edb2 743e 5764 bcbe
00000180: b409 c13c bf76 bbbd 5759 a53e 87dc af3e
00000190: abe4 213e 147a 96b9 71e7 f93d 9898 6cbe
000001a0: 10b0 0bbe 5e1c e4bc b455 fc3e e0ae ed3d
000001b0: c805 01bf 62d3 9f3e d3d2 643d 6502 a5be
000001c0: 80a7 1dbe ef25 913e 0330 37bd 4ac0 943d
000001d0: 985e 9ebe c189 f5bd c1a6 f0bb 0464 03be
000001e0: f490 4fbd 4612 c4be b2ae 073e 255f 07bf
000001f0: b101 113f a2e2 04bd 26d3 cebe 7ef2 d93d
00000200: d529 bdbd 0c39 9abd 0a9a a23e a781 333e
00000210: 5e69 e4be 1b22 3bbe 742e d2be 7df5 393f
00000220: c20d db3e aa7e 36bd 3000 9fbd 7430 e9bd
00000230: f88f db3e 8aa2 ad3e 292e 23be a6ed 86be
00000240: 400f cf3d c1ca 593e d7d8 79bd b719 0a3f
00000250: 70c3 173f 2be5 e23e 2c38 0f3c 73cf 5ebe
00000260: e8a4 293e 7528 00be e883 8e3d 7053 17be
00000270: f314 6ebc 9847 ffbd 29b3 80be 82b3 683e
00000280: ebf5 6c3e 8674 0abe 4f8b 2b3d 5fa7 153f
00000290: 160a 9cbd 896b 45bd 5308 39be 93f7 61be
000002a0: 96b7 993e 9c40 66be 9ae1 97be 2f7c 0d3f
000002b0: eaa0 0c3f 747a bfbe aefa 2fbd 24ed a7be
000002c0: 6af8 a83d f43a af3d 840a cc3e ede7 183d
000002d0: 135d b23e 9b42 9abe 0dcc 653e 44d6 303b
000002e0: 5f38 ce3d 751f b4bd fc98 0cbf f14c febd
000002f0: 2453 bcbc 525f 53be 8bab 99be cfac 7e3d
00000300: 2545 62be 5fe4 8d3d 019e b7be 0926 febd
00000310: b16f 633e aade 093e f9be d6be 0626 0bbe
00000320: e643 29be a986 c4be de9e 073f 71e1 52be
00000330: f585 15be 39cc ebbd afb0 6dbb f82b 58be
00000340: 6c72 3c3d 568c 0bbc 5f8a 153d 3bb1 b0be
00000350: 80ef 29be 1bc7 39be 2aae 653e b635 d23e
00000360: 4576 9cbd 8ced efbe e9d1 babc 0988 27be
00000370: a29d e03d 33ec 2ebc 7f89 173f 99c5 9b3e
00000380: e153 10be 24e7 fe3d 0bcd 453c 485b c0be
00000390: fae9 653e d9af 583e a783 c83e 4306 79be
000003a0: 1302 4e3e b9a5 b03d 61bd b43e b17f 4ebe
000003b0: b8d9 b2be 4f29 053f f2c7 89bd 5d61 d2ba
000003c0: dd5f a8be 0086 a8bb deae 5bbe 652c b93d
000003d0: 40e6 0cbd 03c5 8b3e b34a ff3e eeec d9be
000003e0: 2238 0abd 39aa abbb 2b69 823e a6a8 f8bd
000003f0: 0eef 273d 8ebf 4e3d 1e03 7a3e 5f83 bebc

model.GNN.layers.0.bias f4 [256]
-0.08108176 -0.114160806 -0.12947227 -0.029357161 -0.065960206 -0.11656487 -0.11244061 -0.20083003
-0.03632447 0.027813166 -0.08939687 -0.1253024 -0.17591158 0.009635827 -0.045530166 0.011154355
0.04249715 -0.12968202 -0.2815303 -0.10695633 -0.12363456 0.08346737 -0.07345304 -0.1256054
-0.111149296 -0.20178585 -0.102118984 -0.04874129 -0.021657612 0.029528147 -0.07207307 0.017020788
-0.22839163 -0.31797728 -0.1342153 -0.045330953 -0.10330672 -0.105251536 -0.01083335 -0.06114039
-0.23410963 -0.11549263 -0.0643784 -0.06264704 -0.16219345 -0.15530491 0.0 -0.07382705
-0.07968586 0.023785593 -0.14152156 -0.105738364 -0.08193411 -0.10753209 -0.20639394 -0.17267369
-0.08311873 -0.110799424 -0.07446311 0.031165842 -0.2184521 -0.08028877 -0.101073235 -0.041468862
-0.19067763 -0.22066823 -0.083651744 -0.09819883 -0.14177206 0.079598516 -0.08440629 -0.061685488
-0.026771352 0.054007445 0.032869566 -0.033631746 -0.060837027 -0.065234005 -0.111323714 -0.15677732
-0.11959106 -0.05702165 -0.091809735 -0.055849697 -0.12345804 -0.058945633 -0.0625259 -0.08267485
-0.10046065 -0.05007161 -0.09011004 -0.07955115 -0.14002939 0.010233633 -0.09168073 -0.17900229
-0.075882286 -0.07687682 0.0711878 -0.0700636 -0.09185509 -0.0843683 -0.07583632 -0.07446609
-0.13747433 -0.08309589 -0.18040346 -0.06678475 -0.13609412 -0.082544096 -0.16166914 -0.08805693
0.018431403 -0.09453609 -0.16431053 -0.11091679 -0.09341166 -0.12095947 -0.27166653 -0.065548114
-0.07411561 -0.053419534 -0.1654281 -0.24786569 -0.14876382 -0.1262026 -0.13343292 -0.24143833
-0.084042825 -0.09914131 -0.15343402 -0.1975083 -0.13251683 -0.11775072 -0.19157673 -0.056545444
-0.07866996 0.031343773 -0.0683835 -0.033310942 -0.031407215 -0.17087995 -0.1088782 -0.20632954
-0.09181002 -0.022225007 -0.111830056 -0.13171059 -0.073385656 -0.083431445 0.0071795397 -0.061286442
-0.13166483 -0.061941646 -0.16976559 -0.103377186 -0.3237511 -0.09722753 -0.05985377 -0.14270411
-0.1493125 -0.017454728 -0.14184484 0.010559473 -0.11904489 -0.14413755 -0.13964938 -0.030360451
0.04534396 -0.24575363 -0.25646716 -0.13140672 -0.086298704 -0.06640728 0.021913657 -0.045814183
-0.09583049 -0.038499396 -0.12284219 -0.04678263 -0.077694714 -0.25385392 -0.14446504 -0.05151986
-0.075511016 -0.07418829 0.04030817 -0.027854787 -0.03399847 -0.07942649 -0.060013477 -0.08231912
-0.09501813 0.0047035455 -0.15405816 -0.0873229 -0.079160504 -0.13559683 -0.06845908 -0.12803103
-0.05655235 -0.072945856 -0.066216156 -0.10662694 -0.21654968 -0.28154728 -0.037823822 -0.08955423
-0.0637057 -0.08090286 -0.12080449 -0.1421763 -0.23847516 -0.11503319 -0.0052504083 -0.17175195
-0.120582186 -0.14585276 -0.33960092 -0.17677 -0.048109416 -0.1311854 -0.019638086 -0.1309879
-0.12231468 -0.10998694 -0.036741823 -0.18159957 -0.16764064 -0.15053359 0.025815396 -0.024383951
-0.13337293 -0.18507294 -0.11925127 -0.08366987 -0.033392865 -0.114025705 -0.07632647 -0.121366404
-0.22375403 -0.12927216 -0.09252418 -0.035153065 -0.18492696 -0.14889824 0.0024555393 -0.18410835
-0.086129926 -0.070003964 -0.094517075 -0.12683885 -0.16196527 -0.08162716 -0.056254875 -0.076054074
00000000: 320e a6bd 24cd e9bd 6194 04be 6e7e f0bc
00000010: 2516 87bd 90b9 eebd 4347 e6bd 63a6 4dbe
00000020: f8c8 14bd 70d8 e33c b515 b7bd 464f 00be
00000030: 2a22 34be 96df 1d3c d77d 3abd c1c0 363c
00000040: 7e11 2e3d 5dcb 04be bd24 90be ec0b dbbd
00000050: 1e34 fdbd f1f0 aa3d 8c6e 96bd b49e 00be
00000060: 3ea2 e3bd f3a0 4ebe c223 d1bd f2a4 47bd
00000070: 4e6b b1bc 03e5 f13c 0c9b 93bd 2e6f 8b3c
00000080: 7fdf 69be ebcd a2be bc6f 09be f3ac 39bd
00000090: 7992 d3bd 1e8e d7bd 5d7e 31bc 586e 7abd
000000a0: 6fba 6fbe 6687 ecbd d3d8 83bd 174d 80bd
000000b0: 0a16 26be 4008 1fbe 0000 0000 a332 97bd
000000c0: 5732 a3bd 01da c23c 07eb 10be 5b8d d8bd
000000d0: 12cd a7bd c939 dcbd ef58 53be 5fd1 30be
000000e0: 273a aabd cfea e2bd 1d80 98bd 824f ff3c
000000f0: e8b1 5fbe 706e a4bd 7cff cebd 41db 29bd
00000100: ff40 43be daf6 61be 9b51 abbd 781c c9bd
00000110: b22c 11be 8c04 a33d 34dd acbd eca9 7cbd
00000120: 984f dbbc e936 5d3d 3da2 063d 71c1 09bd
00000130: 3f30 79bd 6899 85bd b0fd e3bd 3c8a 20be
00000140: 28ec f4bd 898f 69bd be06 bcbd a7c2 64bd
00000150: 92d7 fcbd fa70 71bd 940d 80bd 6f51 a9bd
00000160: 50be cdbd e317 4dbd 9d8b b8bd b7eb a2bd
00000170: dd63 0fbe f8aa 273c 1bc3 bbbd 604c 37be
00000180: 2c68 9bbd 9871 9dbd e9ca 913d 817d 8fbd
00000190: 851e bcbd 4ac9 acbd 1350 9bbd ad81 98bd
000001a0: 12c6 0cbe 2e2e aabd afbb 38be 71c6 88bd
000001b0: 425c 0bbe e10c a9bd 988c 25be 3157 b4bd
000001c0: 74fd 963c 239c c1bd 0541 28be 5828 e3bd
000001d0: 9d4e bfbd 99b9 f7bd e017 8bbe 173e 86bd
000001e0: edc9 97bd 71ce 5abd fc65 29be 81d0 7dbe
000001f0: 8b55 18be 413b 01be a4a2 08be 9c3b 77be
00000200: a51e acbd 990a cbbd cf1d 1dbe 9e3f 4abe
00000210: 7eb2 07be 4a27 f1bd b12c 44be 329c 67bd
00000220: b71d a1bd 5462 003d a60c 8cbd 0e71 08bd
00000230: daa4 00bd 27fb 2ebe 89fb debd 0d48 53be
00000240: e406 bcbd 3811 b6bc 2807 e5bd 24df 06be
00000250: 384b 96bd 1bde aabd 5842 eb3b 7e07 7bbd
00000260: 25d3 06be 86b6 7dbd 08d7 2dbe 6bb7 d3bd
00000270: b4c2 a5be 3a1f c7bd 3a29 75bd 0721 12be
00000280: 60e5 18be 38fd 8ebc c63f 11be a401 2d3c
00000290: cfcd f3bd cb98 13be 3f00 0fbe 7bb6 f8bc
000002a0: 97ba 393d d7a6 7bbe aa4f 83be 7c8f 06be
000002b0: 60bd b0bd 8a00 88bd 4584 b33c a7a7 3bbd
000002c0: c742 c4bd 8bb1 1dbd b094 fbbd 259f 3fbd
000002d0: 681e 9fbd 24f9 81be a5ee 13be 7d06 53bd
000002e0: 85a5 9abd 08f0 97bd 2e1a 253d b92f e4bc
000002f0: fb41 0bbd 5baa a2bd b1d0 75bd ed96 a8bd
00000300: de98 c2bd 3320 9a3b 6cc1 1dbe 59d6 b2bd
00000310: e71e a2bd e5d9 0abe 4634 8cbd 911a 03be
00000320: 70a3 67bd a364 95bd 569c 87bd 3a5f dabd
00000330: 33bf 5dbe f726 90be 27ed 1abd 3568 b7bd
00000340: 2278 82bd 66b0 a5bd 5868 f7bd aa96 11be
00000350: d532 74be 8596 ebbd 9e0b acbb bedf 2fbe
00000360: cbf3 f6bd 6d5a 15be 2ce0 adbe 3203 35be
00000370: 610e 45bd 7755 06be 0de0 a0bc b121 06be
00000380: 1e80 fabd d540 e1bd 987e 16bd 3df5 39be
00000390: fda9 2bbe 7a25 1abe cf7a d33c dac0 c7bc
000003a0: ea92 08be c383 3dbe 033a f4bd 1c5b abbd
000003b0: f5c6 08bd 4f86 e9bd 0d51 9cbd f38e f8bd
000003c0: c71f 65be ec5f 04be 517d bdbd a9fc 0fbd
000003d0: 7e5d 3dbe c878 18be 1ded 203b e686 3cbe
000003e0: e364 b0bd 3d5e 8fbd 2b92 c1bd 0be2 01be
000003f0: 39da 25be 242c a7bd 836b 66bd 3dc2 9bbd

model.GNN.layers.0.lin_src.weight f4 [256, 7]
0.0035292767 0.003961157 -0.036287416 -0.055000454 0.11467498 -0.025709651 0.11785637 -0.036305424
-0.04491141 -0.08463079 -0.12388823 -0.4322162 -0.11357322 0.0006000791 -0.08457487 0.10237388
-0.08511429 -1.2719262 -0.82032645 -0.35101372 -0.72437334 -0.18017389 -0.34968132 0.46343306
0.14893527 0.19453034 -0.050832704 0.07582993 -0.06686552 -0.06615078 -0.08182923 -0.090284884
-0.7013468 -0.010767174 -0.3926061 -0.2784985 -0.07246221 0.30664763 -0.046242483 0.052138045
-0.0614402 0.15515856 0.033809297 0.033866707 -0.032587055 -0.057477664 0.13456075 0.023555325
0.007916789 0.002363342 0.0001834142 -0.013683214 0.070796356 0.24771887 -0.10621597 0.17860161
-0.042066526 -0.043695852 -0.10356614 -0.12608866 -0.4765547 -0.099874616 -0.08136375 0.4648702
-0.21019055 -0.34687966 -0.77893615 -0.12932114 -0.28280875 -0.21801302 0.007635732 0.00703339
-0.00019324594 -0.177267 0.07273453 -0.0754316 0.0037910517 -0.09531933 -0.09438704 -0.17097782
0.2781896 -0.029744152 -0.32826784 0.015828023 -0.08455553 -0.16539098 0.1568569 -0.23849347
0.16986342 -0.05313143 0.09637912 0.103327006 -0.16755128 0.43046644 -0.4915104 0.12539145
-0.31164846 0.016214058 -0.045093752 -0.050600223 -0.023986425 -0.07738554 -0.06458151 0.040729888
0.11219172 -0.051030755 -0.052368637 -0.06479025 -0.14552443 -0.4085539 -0.054893885 -0.12791225
-0.15497321 0.24862844 -0.003966627 -0.09684183 -0.49626666 -0.3708955 -0.06567148 -0.08102681
-0.080925755 -0.068449944 0.12080033 -0.44554245 -0.15257873 0.014815467 -0.09219602 -0.07988206
-0.036758553 0.22977902 0.056305006 -0.06386552 0.12860474 -0.102505356 -0.075661935 -0.029244982
0.23765445 0.06610657 0.056544643 0.010435687 0.0036871273 0.0043788506 0.049925197 -0.045135632
0.061587647 0.10522668 0.060672816 -0.009076213 0.19742079 0.110763334 0.04386349 -0.007715067
0.12729286 0.003732285 -0.036284856 -0.034773715 -0.059670676 0.0075718784 -0.22112751 -0.14274417
-0.01528128 0.029297715 0.017203886 0.033745054 -0.046722773 0.025426727 0.09480547 0.14243619
0.045766048 0.059589427 0.008657085 0.009089628 0.19731088 0.10035409 0.02371893 0.0012645447
0.0072358856 0.009469775 0.09666733 -0.74623364 0.026236424 -0.2665701 -0.16212669 -0.15699597
-0.058463003 -0.017524078 -0.030824643 -0.30878744 0.2245505 -0.078005515 -0.07136563 -0.108629234
-0.17364295 -0.57981944 -0.16263276 -0.19191447 -0.003577502 0.21522303 -0.6300766 0.17008954
0.115292594 0.34302002 0.0018924964 -0.15391734 -0.145077 -0.14923273 -0.08527729 0.46860552
-0.20327021 0.3408297 -0.04065452 -0.044624247 -0.029369742 -0.105609976 0.118696705 -0.0846489
0.03669583 -0.15648635 0.3375852 -0.8268992 0.30981073 -0.81656927 -0.4471091 -0.24650912
0.04001853 0.033948373 -0.0056012343 -0.10845332 -0.3862234 0.02574882 -0.47123295 -0.09133796
-0.088214085 -0.026546165 -0.07452853 -0.56268406 -0.025731724 -0.2716928 -0.0500844 -0.05002108
-0.06262919 0.010139832 -0.09822213 -0.16693404 0.101216875 0.005238059 -0.023083562 -0.021260109
-0.4521821 -0.14045307 -0.25276557 -0.20424072 -0.18026716 -0.5357082 0.7810077 -0.017395247
00000000: 704b 673b 98cc 813b 1da2 14bd 2848 61bd
00000010: b7da ea3d 0c9d d2bc ae5e f13d ffb4 14bd
00000020: 07f5 37bd e852 adbd 1db9 fdbd 714b ddbe
00000030: 1499 e8bd a04e 1d3a 9735 adbd 66a9 d13d
00000040: 6750 aebd 7ace a2bf ea00 52bf 12b8 b3be
00000050: 8870 39bf 817f 38be 6e09 b3be 1947 ed3e
00000060: 7d82 183e f632 473e f435 50bd b94c 9b3d
00000070: caf0 88bd 0f7a 87bd 1596 a7bd 48e7 b8bd
00000080: 778b 33bf cd68 30bc ab03 c9be 5b97 8ebe
00000090: 1167 94bd eb00 9d3e c268 3dbd b48e 553d
000000a0: b8a8 7bbd e3e1 1e3e 9e7b 0a3d d1b7 0a3d
000000b0: 017a 05bd b36d 6bbd 4bca 093e 19f7 c03c
000000c0: 6bb5 013c 4de2 1a3b e052 4039 8f2f 60bc
000000d0: aefd 903d 04aa 7d3e c287 d9bd 57e3 363e
000000e0: f34d 2cbd 6cfa 32bd 7c1a d4bd 631d 01be
000000f0: fafe f3be 108b ccbd 0aa2 a6bd 7803 ee3e
00000100: 313c 57be 369a b1be 5c68 47bf c36c 04be
00000110: 4fcc 90be ce3e 5fbe 2a35 fa3b 5a78 e63b
00000120: 10a2 4ab9 7b85 35be d7f5 943d e27b 9abd
00000130: 4b73 783b c836 c3bd fe4d c1bd cf14 2fbe
00000140: de6e 8e3e 02aa f3bc b912 a8be c5a9 813c
00000150: 732b adbd 415c 29be 189f 203e a237 74be
00000160: adf0 2d3e 58a0 59bd 6b62 c53d 1c9d d33d
00000170: 9092 2bbe 1966 dc3e 40a7 fbbe 9e66 003e
00000180: 6390 9fbe 58d3 843c 3ab4 38bd 2e42 4fbd
00000190: 2e7f c4bc 4f7c 9ebd 5043 84bd 62d4 263d
000001a0: c6c4 e53d a005 51bd 7f80 56bd c0b0 84bd
000001b0: 5b04 15be fa2d d1be 69d8 60bd 6efb 02be
000001c0: 4cb1 1ebe 7498 7e3e 7bfa 81bb 0255 c6bd
000001d0: aa16 febe 04e6 bdbe c57e 86bd 62f1 a5bd
000001e0: 67bc a5bd 7c2f 8cbd 2a66 f73d 241e e4be
000001f0: 993d 1cbe 93bc 723c 44d1 bcbd 3599 a3bd
00000200: 2390 16bd 314b 6b3e 14a0 663d edcb 82bd
00000210: f6b0 033e 54ee d1bd a5f4 9abd 2c93 efbc
00000220: b05b 733e e262 873d 5b9b 673d 72fa 2a3c
00000230: bba3 713b 767c 8f3b 5d7e 4c3d 24e0 38bd
00000240: 5443 7c3d 1681 d73d 0f84 783d 66b4 14bc
00000250: ad28 4a3e e3d7 e23d 34aa 333d acce fcbb
00000260: 0f59 023e 5a99 743b 6e9f 14bd e26e 0ebd
00000270: 3d69 74bd 851d f83b 406f 62be 872b 12be
00000280: 555e 7abc c301 f03c 2aef 8c3c 4138 0a3d
00000290: 6160 3fbd b64b d03c 5f29 c23d cbda 113e
000002a0: 2e75 3b3d 0b14 743d 72d6 0d3c aaec 143c
000002b0: dd0b 4a3e 7286 cd3d 344e c23c 14bf a53a
000002c0: 021b ed3b 1d27 1b3c 85f9 c53d 2b09 3fbf
000002d0: c5ed d63c e07b 88be 8a04 26be 8dc3 20be
000002e0: e776 6fbd a88e 8fbc f683 fcbc 6319 9ebe
000002f0: 91f0 653e 5bc1 9fbd 2528 92bd 0179 debd
00000300: 75cf 31be 0c6f 14bf 3489 26be 3a85 44be
00000310: 8674 6abb 6d63 5c3e b34c 21bf f42b 2e3e
00000320: 861e ec3d 52a0 af3e a40d f83a 829c 1dbe
00000330: 118f 14be 77d0 18be dca5 aebd 10ed ef3e
00000340: 1126 50be 3b81 ae3e 5b85 26bd eac7 36bd
00000350: d098 f0bc 0b4a d8bd 4217 f33d 675c adbd
00000360: 5e4e 163d f53d 20be f8d7 ac3e aaaf 53bf
00000370: 839f 9e3e af0a 51bf 7ceb e4be e36c 7cbe
00000380: 78ea 233d 730d 0b3d 8f8a b7bb c61c debd
00000390: 13bf c5be 30ef d23c 7245 f1be 650f bbbd
000003a0: 96a9 b4bd 5877 d9bc 6aa2 98bd 100c 10bf
000003b0: 56cb d2bc 521b 8bbe 4d25 4dbd e7e2 4cbd
000003c0: bc43 80bd 8a21 263c af28 c9bd c2f0 2abe
000003d0: cb4a cf3d 06a4 ab3b bd19 bdbc ae29 aebc
000003e0: 6a84 e7be eed2 0fbe 7d6a 81be 7b24 51be
000003f0: f497 38be 2c24 09bf 1ff0 473f 7a80 8ebc

model.GNN.layers.0.lin_dst.weight f4 [256, 7]
0.0035292767 0.003961157 -0.036287416 -0.055000454 0.11467498 -0.025709651 0.11785637 -0.036305424
-0.04491141 -0.08463079 -0.12388823 -0.4322162 -0.11357322 0.0006000791 -0.08457487 0.10237388
-0.08511429 -1.2719262 -0.82032645 -0.35101372 -0.72437334 -0.18017389 -0.34968132 0.46343306
0.14893527 0.19453034 -0.050832704 0.07582993 -0.06686552 -0.06615078 -0.08182923 -0.090284884
-0.7013468 -0.010767174 -0.3926061 -0.2784985 -0.07246221 0.30664763 -0.046242483 0.052138045
-0.0614402 0.15515856 0.033809297 0.033866707 -0.032587055 -0.057477664 0.13456075 0.023555325
0.007916789 0.002363342 0.0001834142 -0.013683214 0.070796356 0.24771887 -0.10621597 0.17860161
-0.042066526 -0.043695852 -0.10356614 -0.12608866 -0.4765547 -0.099874616 -0.08136375 0.4648702
-0.21019055 -0.34687966 -0.77893615 -0.12932114 -0.28280875 -0.21801302 0.007635732 0.00703339
-0.00019324594 -0.177267 0.07273453 -0.0754316 0.0037910517 -0.09531933 -0.09438704 -0.17097782
0.2781896 -0.029744152 -0.32826784 0.015828023 -0.08455553 -0.16539098 0.1568569 -0.23849347
0.16986342 -0.05313143 0.09637912 0.103327006 -0.16755128 0.43046644 -0.4915104 0.12539145
-0.31164846 0.016214058 -0.045093752 -0.050600223 -0.023986425 -0.07738554 -0.06458151 0.040729888
0.11219172 -0.051030755 -0.052368637 -0.06479025 -0.14552443 -0.4085539 -0.054893885 -0.12791225
-0.15497321 0.24862844 -0.003966627 -0.09684183 -0.49626666 -0.3708955 -0.06567148 -0.08102681
-0.080925755 -0.068449944 0.12080033 -0.44554245 -0.15257873 0.014815467 -0.09219602 -0.07988206
-0.036758553 0.22977902 0.056305006 -0.06386552 0.12860474 -0.102505356 -0.075661935 -0.029244982
0.23765445 0.06610657 0.056544643 0.010435687 0.0036871273 0.0043788506 0.049925197 -0.045135632
0.061587647 0.10522668 0.060672816 -0.009076213 0.19742079 0.110763334 0.04386349 -0.007715067
0.12729286 0.003732285 -0.036284856 -0.034773715 -0.059670676 0.0075718784 -0.22112751 -0.14274417
-0.01528128 0.029297715 0.017203886 0.033745054 -0.046722773 0.025426727 0.09480547 0.14243619
0.045766048 0.059589427 0.008657085 0.009089628 0.19731088 0.10035409 0.02371893 0.0012645447
0.0072358856 0.009469775 0.09666733 -0.74623364 0.026236424 -0.2665701 -0.16212669 -0.15699597
-0.058463003 -0.017524078 -0.030824643 -0.30878744 0.2245505 -0.078005515 -0.07136563 -0.108629234
-0.17364295 -0.57981944 -0.16263276 -0.19191447 -0.003577502 0.21522303 -0.6300766 0.17008954
0.115292594 0.34302002 0.0018924964 -0.15391734 -0.145077 -0.14923273 -0.08527729 0.46860552
-0.20327021 0.3408297 -0.04065452 -0.044624247 -0.029369742 -0.105609976 0.118696705 -0.0846489
0.03669583 -0.15648635 0.3375852 -0.8268992 0.30981073 -0.81656927 -0.4471091 -0.24650912
0.04001853 0.033948373 -0.0056012343 -0.10845332 -0.3862234 0.02574882 -0.47123295 -0.09133796
-0.088214085 -0.026546165 -0.07452853 -0.56268406 -0.025731724 -0.2716928 -0.0500844 -0.05002108
-0.06262919 0.010139832 -0.09822213 -0.16693404 0.101216875 0.005238059 -0.023083562 -0.021260109
-0.4521821 -0.14045307 -0.25276557 -0.20424072 -0.18026716 -0.5357082 0.7810077 -0.017395247
00000000: 704b 673b 98cc 813b 1da2 14bd 2848 61bd
00000010: b7da ea3d 0c9d d2bc ae5e f13d ffb4 14bd
00000020: 07f5 37bd e852 adbd 1db9 fdbd 714b ddbe
00000030: 1499 e8bd a04e 1d3a 9735 adbd 66a9 d13d
00000040: 6750 aebd 7ace a2bf ea00 52bf 12b8 b3be
00000050: 8870 39bf 817f 38be 6e09 b3be 1947 ed3e
00000060: 7d82 183e f632 473e f435 50bd b94c 9b3d
00000070: caf0 88bd 0f7a 87bd 1596 a7bd 48e7 b8bd
00000080: 778b 33bf cd68 30bc ab03 c9be 5b97 8ebe
00000090: 1167 94bd eb00 9d3e c268 3dbd b48e 553d
000000a0: b8a8 7bbd e3e1 1e3e 9e7b 0a3d d1b7 0a3d
000000b0: 017a 05bd b36d 6bbd 4bca 093e 19f7 c03c
000000c0: 6bb5 013c 4de2 1a3b e052 4039 8f2f 60bc
000000d0: aefd 903d 04aa 7d3e c287 d9bd 57e3 363e
000000e0: f34d 2cbd 6cfa 32bd 7c1a d4bd 631d 01be
000000f0: fafe f3be 108b ccbd 0aa2 a6bd 7803 ee3e
00000100: 313c 57be 369a b1be 5c68 47bf c36c 04be
00000110: 4fcc 90be ce3e 5fbe 2a35 fa3b 5a78 e63b
00000120: 10a2 4ab9 7b85 35be d7f5 943d e27b 9abd
00000130: 4b73 783b c836 c3bd fe4d c1bd cf14 2fbe
00000140: de6e 8e3e 02aa f3bc b912 a8be c5a9 813c
00000150: 732b adbd 415c 29be 189f 203e a237 74be
00000160: adf0 2d3e 58a0 59bd 6b62 c53d 1c9d d33d
00000170: 9092 2bbe 1966 dc3e 40a7 fbbe 9e66 003e
00000180: 6390 9fbe 58d3 843c 3ab4 38bd 2e42 4fbd
00000190: 2e7f c4bc 4f7c 9ebd 5043 84bd 62d4 263d
000001a0: c6c4 e53d a005 51bd 7f80 56bd c0b0 84bd
000001b0: 5b04 15be fa2d d1be 69d8 60bd 6efb 02be
000001c0: 4cb1 1ebe 7498 7e3e 7bfa 81bb 0255 c6bd
000001d0: aa16 febe 04e6 bdbe c57e 86bd 62f1 a5bd
000001e0: 67bc a5bd 7c2f 8cbd 2a66 f73d 241e e4be
000001f0: 993d 1cbe 93bc 723c 44d1 bcbd 3599 a3bd
00000200: 2390 16bd 314b 6b3e 14a0 663d edcb 82bd
00000210: f6b0 033e 54ee d1bd a5f4 9abd 2c93 efbc
00000220: b05b 733e e262 873d 5b9b 673d 72fa 2a3c
00000230: bba3 713b 767c 8f3b 5d7e 4c3d 24e0 38bd
00000240: 5443 7c3d 1681 d73d 0f84 783d 66b4 14bc
00000250: ad28 4a3e e3d7 e23d 34aa 333d acce fcbb
00000260: 0f59 023e 5a99 743b 6e9f 14bd e26e 0ebd
00000270: 3d69 74bd 851d f83b 406f 62be 872b 12be
00000280: 555e 7abc c301 f03c 2aef 8c3c 4138 0a3d
00000290: 6160 3fbd b64b d03c 5f29 c23d cbda 113e
000002a0: 2e75 3b3d 0b14 743d 72d6 0d3c aaec 143c
000002b0: dd0b 4a3e 7286 cd3d 344e c23c 14bf a53a
000002c0: 021b ed3b 1d27 1b3c 85f9 c53d 2b09 3fbf
000002d0: c5ed d63c e07b 88be 8a04 26be 8dc3 20be
000002e0: e776 6fbd a88e 8fbc f683 fcbc 6319 9ebe
000002f0: 91f0 653e 5bc1 9fbd 2528 92bd 0179 debd
00000300: 75cf 31be 0c6f 14bf 3489 26be 3a85 44be
00000310: 8674 6abb 6d63 5c3e b34c 21bf f42b 2e3e
00000320: 861e ec3d 52a0 af3e a40d f83a 829c 1dbe
00000330: 118f 14be 77d0 18be dca5 aebd 10ed ef3e
00000340: 1126 50be 3b81 ae3e 5b85 26bd eac7 36bd
00000350: d098 f0bc 0b4a d8bd 4217 f33d 675c adbd
00000360: 5e4e 163d f53d 20be f8d7 ac3e aaaf 53bf
00000370: 839f 9e3e af0a 51bf 7ceb e4be e36c 7cbe
00000380: 78ea 233d 730d 0b3d 8f8a b7bb c61c debd
00000390: 13bf c5be 30ef d23c 7245 f1be 650f bbbd
000003a0: 96a9 b4bd 5877 d9bc 6aa2 98bd 100c 10bf
000003b0: 56cb d2bc 521b 8bbe 4d25 4dbd e7e2 4cbd
000003c0: bc43 80bd 8a21 263c af28 c9bd c2f0 2abe
000003d0: cb4a cf3d 06a4 ab3b bd19 bdbc ae29 aebc
000003e0: 6a84 e7be eed2 0fbe 7d6a 81be 7b24 51be
000003f0: f497 38be 2c24 09bf 1ff0 473f 7a80 8ebc

model.GNN.layers.3.att_src f4 [1, 1, 256]
0.02407459 0.0062655127 0.21064848 0.0370693 0.26294583 0.034053188 -0.13795519 -0.08668564
-0.08453355 -0.014790712 -0.016772125 -0.07983874 0.2567777 -0.04309702 -0.09393178 0.27066547
0.09116184 0.378812 -0.034731697 0.28825143 0.22919016 -0.009374354 -0.12132949 -0.06254119
0.30485913 -0.0938325 -0.13339378 -0.008730439 -0.093237095 -0.13610859 -0.0088637285 0.0052392343
0.0060048494 0.0037968648 -0.12864378 0.06606407 0.37335953 0.0075149992 -0.0062024165 0.3571248
-0.08782702 -0.116935 -0.119994126 -0.06925314 -0.023993274 -0.11412205 -0.01847223 3.34864e-05
-0.040213373 0.13643032 0.24485706 0.05271823 -0.07025516 -0.021114634 -0.014359726 -0.035104968
0.030644713 -0.03666891 -0.09711349 0.006880492 0.28503057 0.1006499 -0.0014002509 0.22833897
0.17931153 -0.11053362 0.20161901 -0.013002162 -0.00068349787 0.028749958 0.044407926 0.12127055
0.16432875 -0.051144954 -0.009503488 -0.051147405 0.26440027 -0.060356148 0.29043946 -0.022680791
0.12853971 -0.14793383 -0.049725004 0.16068083 0.052299123 -0.0020554394 0.015344592 -0.004873798
0.20584299 0.007495907 0.29555902 0.051358968 -0.03950557 -0.1572991 0.14011605 -0.08413579
-0.08820874 -0.023719786 -0.087286115 -0.08097812 -0.10973012 0.14690527 0.0391879 0.08310622
0.32144138 0.18676102 0.015748931 -0.10349958 0.14395344 0.010202045 -0.03573174 0.1476696
-0.080498725 0.3499635 -0.02532877 0.09043674 0.010035984 0.3305563 0.04133774 -0.11363062
-0.10555172 -0.115658045 -0.064677745 -0.030466309 -0.06189387 -0.054501675 -0.05166395 0.35377446
-0.0886603 0.042532913 0.07073531 -0.10622459 0.014172826 -0.09874823 -0.08182014 -0.048664283
0.022919068 -0.04609128 -0.060538568 -0.0041603753 -0.08254219 -0.046866305 0.03927766 0.007166324
0.32661656 -0.031374168 0.044846367 -0.06501585 -0.071753874 -0.12460878 -0.008211763 -0.10044955
0.022915006 -0.053515438 0.22760978 -0.025234664 0.1358785 0.028525218 -0.064628944 0.013509402
0.02176705 -0.063551016 0.1597432 -0.099995315 -0.08313991 -0.0624697 -0.028738542 0.010453314
-0.098374926 0.026008043 -0.13905422 0.15643103 -0.110068284 -0.15420888 0.009899143 -0.10253146
-0.05569129 0.057763766 -0.11353562 -0.0077605555 -0.010464363 0.0016103312 -0.15728052 -0.053480547
-0.012700738 -0.06042131 0.108642444 0.24841064 0.023547364 -0.18182378 0.1729944 0.059878338
0.03579945 -0.086851716 0.0026340212 -0.08285513 0.00929953 -0.016411409 -0.050068863 0.2374376
0.008792201 -0.07358964 -0.08022408 -0.0788017 -0.010938488 -0.097986594 0.2681257 -0.04521254
0.023620538 0.208135 -0.045756254 0.43383124 0.21944365 0.14405671 -0.14165233 0.007891391
0.38102648 0.21309808 -0.019887295 -0.010357749 -0.1674638 0.0041250368 -0.037050713 0.08231585
0.22254427 0.22108309 0.12653363 0.016916785 0.017183688 0.09857731 -0.049491107 -0.021685118
-0.06359682 -0.02365082 -0.12104733 0.18607283 0.024815021 -3.8644066e-05 -0.06081321 -0.038494766
0.30247217 -0.04080422 -0.16096106 -0.06327769 0.005185407 0.02430216 0.074762054 0.0060311705
0.0915787 -0.10975683 -0.052262105 -0.05289945 0.29711205 -0.11143646 0.052752372 -0.055925064
00000000: 1338 c53c ee4e cd3b 3cb4 573e fad5 173d
00000010: d6a0 863e 5b7b 0b3d 2044 0dbe 3e88 b1bd
00000020: ed1f adbd be54 72bc b265 89bc 7e82 a3bd
00000030: 5e78 833e 8086 30bd 4e5f c0bd aa94 8a3e
00000040: 0fb3 ba3d a5f3 c13e d342 0ebd b195 933e
00000050: d3b0 6a3e e496 19bc 987b f8bd 9815 80bd
00000060: 7f16 9c3e 412b c0bd 6198 08be 1d0a 0fbc
00000070: 17f3 bebd 0d60 0bbe 2c39 11bc e2ad ab3b
00000080: 54c4 c43b d2d4 783b 32bb 03be 994c 873d
00000090: fb28 bf3e 6240 f63b a43d cbbb 10d9 b63e
000000a0: a7de b3bd 9e7b efbd 7bbf f5bd 97d4 8dbd
000000b0: 8b8d c4bc d2b8 e9bd 1353 97bc c073 0c38
000000c0: c7b6 24bd 64b4 0b3e cfbb 7a3e 12ef 573d
000000d0: f0e1 8fbd 99f8 acbc 0e45 6bbc 3aca 0fbd
000000e0: 9f0a fb3c 2432 16bd 70e3 c6bd c075 e13b
000000f0: 87ef 913e 8921 ce3d a088 b7ba b1d1 693e
00000100: 719d 373e 735f e2bd 3775 4e3e 0507 55bc
00000110: c42c 33ba 0885 eb3c 16e5 353d b25c f83d
00000120: cc45 283e 5f7d 51bd 85b4 1bbc f17f 51bd
00000130: 795f 873e 0238 77bd 7bb4 943e 11cd b9bc
00000140: ea9f 033e f77b 17be 72ac 4bbd 8489 243e
00000150: 9b37 563d 8db4 06bb e267 7b3c 62b4 9fbb
00000160: 81c8 523e 3aa0 f53b 8353 973e c85d 523d
00000170: 98d0 21bd 0413 21be 957a 0f3e 634f acbd
00000180: c9a6 b4bd ff4f c2bc 10c3 b2bd dbd7 a5bd
00000190: 2fba e0bd 566e 163e 7e83 203d 9833 aa3d
000001a0: f793 a43e 483e 3f3e e703 813c 96f7 d3bd
000001b0: 8868 133e 7a26 273c 725b 12bd b336 173e
000001c0: 84dc a4bd 6a2e b33e 487e cfbc e636 b93d
000001d0: f86d 243c ad3e a93e c351 293d 2cb7 e8bd
000001e0: 802b d8bd 20de ecbd c475 84bd 7b94 f9bc
000001f0: 6d84 7dbd 263d 5fbd 949d 53bd ed21 b53e
00000200: 8893 b5bd fe36 2e3d addd 903d 478c d9bd
00000210: 2435 683c 833c cabd 5191 a7bd 3354 47bd
00000220: c5c0 bb3c 36ca 3cbd 4af7 77bd c253 88bb
00000230: e10b a9bd e2f6 3fbd 9de1 203d 7cd3 ea3b
00000240: 493a a73e 3382 00bd d3b0 373d 0827 85bd
00000250: b2f3 92bd e332 ffbd a18a 06bc 7eb8 cdbd
00000260: 40b8 bb3c 0133 5bbd 8a12 693e edb8 cebc
00000270: bc23 0b3e b8ad e93c 2e5c 84bd 8a56 5d3c
00000280: d050 b23c 0927 82bd b993 233e 58ca ccbd
00000290: 4245 aabd 3ae0 7fbd 176d ebbc 6044 2b3c
000002a0: cb78 c9bd d20e d53c 3b64 0ebe 752f 203e
000002b0: 7b6b e1bd efe8 1dbe 0430 223c 04fc d1bd
000002c0: 8d1c 64bd b399 6c3d 5d85 e8bd 424c febb
000002d0: b872 2bbc c011 d33a 250e 21be 6b0e 5bbd
000002e0: c216 50bc 567c 77bd ee7f de3d 5c5f 7e3e
000002f0: 67e6 c03c 0330 3abe 7225 313e fd42 753d
00000300: 72a2 123d 50df b1bd 8b9f 2c3b f3af a9bd
00000310: 0e5d 183c 3871 86bc 0215 4dbd d822 733e
00000320: 2a0d 103c 2ab6 96bd 864c a4bd c962 a1bd
00000330: 5837 33bc 32ad c8bd c647 893e c930 39bd
00000340: dc7f c13c 5721 553e e96a 3bbd 211f de3e
00000350: d6b5 603e 9a83 133e 4f0d 11be e54a 013c
00000360: e715 c33e 6236 5a3e aeea a2bc 8cb3 29bc
00000370: a17b 2bbe 512b 873b 7dc2 17bd 3695 a83d
00000380: a5e2 633e 9b63 623e 0892 013e 1295 8a3c
00000390: cec4 8c3c e7e2 c93d 30b7 4abd fda4 b1bc
000003a0: 0d3f 82bd 5dbf c1bc aae7 f7bd e089 3e3e
000003b0: df48 cb3c c015 22b8 4617 79bd b0ac 1dbd
000003c0: a2dd 9a3e 5322 27bd fad2 24be bc97 81bd
000003d0: 59ea a93b 5315 c73c d91c 993d 20a1 c53b
000003e0: 9d8d bb3d 30c8 e0bd ca10 56bd 18ad 58bd
000003f0: 121f 983e cc38 e4bd df12 583d ae11 65bd

model.GNN.layers.3.att_dst f4 [1, 1, 256]
-0.39103946 0.4671187 0.047190316 -0.017719781 -0.14782952 -0.23783642 -1.469451 -0.51428455
-0.45835587 -1.0434456 -0.03543424 -0.071808584 0.070888944 -0.2565679 -0.38089356 -0.11334503
0.10086879 -0.06644223 -0.18637748 -0.013974963 0.085201964 -0.53804237 -0.7080558 -1.3701887
-0.001145903 -0.577702 -1.0955746 -0.020929255 -0.5602052 -0.9011054 -0.034907416 -0.6343614
-0.7840813 -0.039007787 -0.53509015 -0.5412021 0.0866409 -0.041572355 -0.2693353 0.1241214
-0.42603832 -0.9883184 -0.35341197 -0.04641444 -0.2683043 -0.7037285 -0.063806884 0.112086065
-0.36407188 -0.07484018 -0.041290037 -0.050437566 -0.7065917 -0.067893475 -0.34245992 -0.5762457
0.15443943 -0.8429059 -0.57653415 0.060446784 0.0909142 0.41769865 0.050187558 -0.19883598
0.0030058995 -0.5614518 -0.16127945 -0.38106018 0.01275491 -0.87679857 -0.23609348 0.06933752
-0.05702497 -0.46739835 -0.25953892 -0.36885172 0.16505064 -0.527251 0.10934069 -1.049848
0.097449824 -1.0613348 -1.2700546 0.111049086 -0.025259566 -0.042590786 0.082783796 -0.01235091
-0.13745803 -0.2251982 0.13774554 -1.5887737 -0.15971065 -0.9815813 0.09262124 -0.31243113
-1.2212791 0.0034985738 -1.294851 -0.8450157 -1.0027155 0.09150909 0.03282708 -0.29323876
0.12045735 0.11109961 0.0127214305 -1.2240901 0.27470356 -0.9177334 -1.6633406 -0.08262794
-1.4173535 0.09729589 0.032916248 -0.15918371 0.0031068046 0.14011498 -0.18212236 -1.3181872
-0.57976687 -0.79669404 -0.2577703 -0.054408647 -1.1763574 -0.6455789 -0.5556748 0.10630319
-1.5171237 -0.012507166 -0.10672407 -0.95423937 -0.56241256 -0.89128846 -1.8452679 -0.6776689
-0.2168464 -0.24081896 -0.3164435 -1.127367 -0.41659167 -1.4106975 -0.2231703 0.024121286
0.20390464 -0.3005642 0.017000414 -0.81222093 -0.540975 0.0513913 0.18814051 -0.35090876
-0.4539039 -0.7343762 0.046856314 -0.32048434 0.07914936 -0.46656117 0.0012156921 -1.633257
0.07136573 -1.0989904 0.464745 -0.82107776 -1.49701 -1.2086742 -0.22479928 -1.3428456
-0.7356442 -0.25832134 -1.0162507 -0.2152183 -0.44807035 -0.97571486 -0.14048105 -1.8951374
-1.0011202 -0.62663376 -1.0136282 -0.10793552 -1.3180933 -1.025017 -1.1952258 -0.37427613
-0.18126403 -1.0612024 -0.19841468 0.075828016 0.5624351 -1.5382375 0.47130167 0.05376262
0.095936656 -0.97460777 -0.06440157 -0.9572918 0.30600116 -0.41704634 -0.40944058 -0.095628664
0.018670369 -0.25251684 0.2327096 -0.6933452 -0.41750345 0.11333442 -0.0015292335 -0.65793484
0.06865448 0.28732765 -0.88266903 -0.5081832 0.09181245 -0.16809887 -0.8593424 -0.09221122
0.11222635 0.09407677 -1.1758789 -0.13833633 -1.37634 -0.19135287 -0.40209344 -0.01796948
0.08840852 0.010783842 0.091876626 0.09109061 -0.13335712 -0.036972746 -0.27236542 -0.008049759
-0.68661946 -0.040469866 -0.9260497 0.41929826 0.019794025 -1.4378431 -0.26804352 -0.12893783
0.12411204 -0.24238361 -1.2496952 0.009250341 -0.022159986 -1.8197595 0.009953356 -1.4692739
0.5722788 -0.6991383 -1.2441585 -0.8199517 0.13102427 -0.40522236 0.013485647 -1.2792343
00000000: 5336 c8be 2f2a ef3e a24a 413d 1329 91bc
00000010: 9f60 17be 648b 73be f816 bcbf 27a8 03bf
00000020: 9fad eabe a08f 85bf 7e23 11bd 6110 93bd
00000030: 392e 913d de5c 83be 7b04 c3be 7021 e8bd
00000040: 4c94 ce3d dd12 88bd bdd9 3ebe 3ef7 64bc
00000050: 5e7e ae3d 25bd 09bf 2543 35bf 5862 afbf
00000060: 2032 96ba 47e4 13bf ca3b 8cbf d473 abbc
00000070: 9c69 0fbf d8ae 66bf 14fb 0ebd 8265 22bf
00000080: 8db9 48bf a1c6 1fbd abfb 08bf 398c 0abf
00000090: c970 b13d c647 2abd 51e6 89be 5c33 fe3d
000000a0: b221 dabe 6f02 7dbf 6af2 b4be 111d 3ebd
000000b0: 2e5f 89be 8d27 34bf 2fad 82bd 618d e53d
000000c0: a167 babe cf45 99bd be1f 29bd 9f97 4ebd
000000d0: 32e3 34bf bc0b 8bbd e856 afbe d784 13bf
000000e0: 5f25 1e3e aec8 57bf be97 13bf 0c97 773d
000000f0: 3931 ba3d 99dc d53e 7891 4d3d a99b 4bbe
00000100: a0fe 443b 4ebb 0fbf 7126 25be 521a c3be
00000110: f8f9 503c df75 60bf 7dc2 71be d400 8e3d
00000120: 0493 69bd d64e efbe 49e2 84be 22da bcbe
00000130: 0903 293e ecf9 06bf 03ee df3d 6b61 86bf
00000140: c693 c73d d2d9 87bf 2691 a2bf b46d e33d
00000150: 26ed cebc ad73 2ebd 8d8a a93d 795b 4abc
00000160: ccc1 0cbe 5b9a 66be 2b0d 0d3e f05c cbbf
00000170: 308b 23be e948 7bbf 34b0 bd3d f9f6 9fbe
00000180: e052 9cbf 5448 653b adbd a5bf f352 58bf
00000190: fb58 80bf 1e69 bb3d b075 063d 6423 96be
000001a0: 58b2 f63d 3188 e33d 8c6d 503c fcae 9cbf
000001b0: f2a5 8c3e 93f0 6abf 58e8 d4bf d638 a9bd
000001c0: d76b b5bf 1143 c73d 30d3 063d 0e01 23be
000001d0: 889b 4b3b 4d7a 0f3e 497e 3abe 5cba a8bf
000001e0: 9a6b 14bf 24f4 4bbf 78fa 83be 9adb 5ebd
000001f0: e192 96bf a944 25bf b440 0ebf 7db5 d93d
00000200: 1c31 c2bf dbea 4cbc 2692 dabd 0849 74bf
00000210: 45fa 0fbf 7b2b 64bf bd31 ecbf b67b 2dbf
00000220: fc0c 5ebe 3f99 76be e204 a2be 904d 90bf
00000230: 814b d5be bc91 b4bf c186 64be 019a c53c
00000240: 61cc 503e 8de3 99be 7444 8b3c b6ed 4fbf
00000250: 567d 0abf af7f 523d e8a7 403e 50aa b3be
00000260: 1866 e8be 1400 3cbf 68ec 3f3d 8616 a4be
00000270: 0f19 a23d 1be1 eebe dc57 9f3a 910e d1bf
00000280: 3228 923d b8ab 8cbf 0ef3 ed3e 2732 52bf
00000290: 069e bfbf d6b5 9abf c831 66be 5de2 abbf
000002a0: 2e53 3cbf b242 84be 8114 82bf 3062 5cbe
000002b0: 7a69 e5be 73c8 79bf 44da 0fbe dd93 f2bf
000002c0: b524 80bf 126b 20bf 92be 81bf 4c0d ddbd
000002d0: 48b7 a8bf c233 83bf 29fd 98bf 1fa1 bfbe
000002e0: 479d 39be 7bd5 87bf 382d 4bbe b84b 9b3d
000002f0: bffb 0f3f f7e4 c4bf 744e f13e 3136 5c3d
00000300: 707a c43d e57f 79bf f8e4 83bd 1311 75bf
00000310: 2fac 9c3e 1987 d5be 32a2 d1be f6d8 c3bd
00000320: 9af2 983c e349 81be 6d4b 6e3e 127f 31bf
00000330: 03c3 d5be e01b e83d 9070 c8ba 6b6e 28bf
00000340: b89a 8c3d 9c1c 933e 99f6 61bf 4b18 02bf
00000350: 2a08 bc3d 1c22 2cbe ddfd 5bbf 3cd9 bcbd
00000360: eed6 e53d 52ab c03d 3383 96bf 0aa8 0dbe
00000370: e92b b0bf 02f2 43be 31df cdbe bb34 93bc
00000380: 870f b53d b6ae 303c d029 bc3d b78d ba3d
00000390: c58e 08be bc70 17bd 7b73 8bbe 23e3 03bc
000003a0: 4bc6 2fbf bbc3 25bd 9811 6dbf 43ae d63e
000003b0: 1427 a23c 3e0b b8bf 003d 89be 4708 04be
000003c0: 742e fe3d 6933 78be 03f6 9fbf be8e 173c
000003d0: dc88 b5bc e1ed e8bf 6713 233c 2b11 bcbf
000003e0: dd80 123f bafa 32bf 9640 9fbf 5be8 51bf
000003f0: 3a2b 063e 4e79 cfbe e7f2 5c3c f3bd a3bf
