PretrainedModels/NodeLevelMLP.ckpt (torch, 95839 bytes, 4 tensors)

model.layers.0.weight f4 [16, 1433]
-0.009983498 -0.0057767723 -0.011293797 -0.054603286 0.10518676 -0.017143304 0.0034361207 0.014055086
-0.0017829756 0.006647708 0.008448514 -0.013490221 0.12376597 0.011765528 0.012388146 0.052576203
0.006128817 0.0171476 0.00552788 0.0045598405 0.016326057 -0.0144171445 0.01787373 0.012740601
-0.005182111 -0.028667392 -0.01162622 0.054123197 0.0025756662 -0.010537684 0.0027004227 -1.48466015e-05
0.020724224 -0.010834961 0.003695818 0.03369187 -0.012622334 -0.018952485 0.024987713 0.11712396
0.029248863 0.06895297 0.0189959 0.009746875 0.061243057 -0.048262596 0.006661348 -0.008716683
0.08630062 0.020901972 -0.021383826 0.22131795 -0.005201128 0.011256719 -0.01966755 0.01201611
-0.045417506 -0.009828171 0.081877224 0.02421918 0.0028073706 -0.011400842 -0.0074843825 -0.0024048516
0.028057601 -0.01704439 0.009097864 0.009923207 -0.008349187 -0.01396966 -0.016563976 0.007998242
-0.007864572 -0.023706373 -0.019283552 -0.010513621 -0.032147843 0.08459959 -0.0077639 -0.005832806
0.025086585 0.01117177 0.05389587 -0.02037264 0.023992632 -0.014672091 -0.010177438 -0.01662852
0.06130537 0.023656528 -0.01796259 -0.01319544 -0.010654851 0.07732029 0.013807969 -0.018688
0.0065816077 -0.0059862845 0.00035161863 0.027303757 0.005667111 0.018677665 0.03138254 0.047753967
0.038473774 -0.010551681 -0.010285999 0.013195085 -0.02194156 -0.01700309 -0.011152865 0.023341313
0.012477509 0.0033619108 -0.021004066 -0.02354961 -0.013939745 -0.024507662 0.043798577 -0.017557288
-0.021064185 -0.04092559 -0.009250295 0.031375162 0.035198607 0.06988361 0.009449808 -0.0050448477
0.036749806 0.05027935 -0.068551086 0.02161193 -0.09448435 0.07072008 0.008310693 0.14418164
-0.018190471 -0.011830846 0.02078839 -0.034270983 -0.027306434 0.016090067 0.005063964 -0.030617176
0.013498807 0.008447067 -0.026802266 -0.011640469 -0.004585518 -0.012342277 0.010119313 0.04124723
0.01803022 0.03192789 0.021864785 0.019084105 -0.0081268465 -0.01077549 -0.016161809 0.007562266
-0.040587414 -0.015155485 0.04682094 -0.0010559239 0.010955674 0.0128641715 -0.0004114963 -0.024047364
-0.061490722 0.024620157 -0.0010641334 0.015943686 0.0377562 -0.0180426 -0.020592915 -0.02069187
-0.023436876 -0.00017664215 -0.0028377878 -0.0012420377 0.016107408 0.006877015 0.012997871 -0.01579035
0.019251896 -0.020074489 -0.025072573 0.017627282 -0.014253868 0.0010589765 0.015901016 0.006100357
0.03761301 -0.023942431 -0.025449574 0.0102521805 -0.036092233 0.0026987775 -0.0006894984 0.014965535
0.014813209 -0.0065168687 -0.002220976 -0.040185865 -0.011399518 0.052432396 0.020618755 -0.034914747
-0.027139027 -0.017142313 -0.0059336354 -0.011660941 0.001345828 -0.027926816 -0.023631383 0.00953479
0.024036188 -0.027487773 -0.0025444361 0.024080249 0.0017465344 -0.0070674047 0.0013966688 -0.009164618
0.01724261 -0.03103488 0.0306662 -0.0066567957 -0.030953389 -0.018864613 -0.011083228 0.014015718
0.070534416 -0.004387301 -0.010888336 0.0019312811 -0.0070771757 -0.004100573 -0.011374935 -0.024405573
0.0011050546 -0.023922447 -0.024986213 0.015680844 0.012127181 -0.014035642 -0.00936269 -0.03426264
0.02060203 -0.02477274 -0.010700044 0.02475873 0.005704144 -0.017018588 -0.022123167 -0.0072898977
00000000: d391 23bc 144b bdbb 9e09 39bc b2a7 5fbd
00000010: 286c d73d 1d70 8cbc 8a30 613b 4e47 663c
00000020: bcb2 e9ba 04d5 d93b a36b 0a3c 1706 5dbc
00000030: 0379 fd3d 33c4 403c a6f7 4a3c 255a 573d
00000040: 3ed4 c83b 2079 8c3c 3823 b53b b76a 953b
00000050: 39be 853c e335 6cbc ee6b 923c f4bd 503c
00000060: b3ce a9bb e1d7 eabc e77b 3ebc 49b0 5d3d
00000070: 82cc 283b 40a6 2cbc 93f9 303b ab15 79b7
00000080: d9c5 a93c 1f85 31bc 8935 723b 7c00 0a3d
00000090: e8cd 4ebc 3e42 9bbc 08b3 cc3c b0de ef3d
000000a0: 509b ef3c 3737 8d3d 4a9d 9b3c 5bb1 1f3c
000000b0: 00da 7a3d 00af 45bd 7047 da3b 6bd0 0ebc
000000c0: 61be b03d 9d3a ab3c 222d afbc 2ca1 623e
000000d0: 396e aabb 1a6e 383c d81d a1bc 38df 443c
000000e0: b507 3abd 5606 21bc 3faf a73d 4d67 c63c
000000f0: ddfb 373b 99ca 3abc 8d3f f5bb b79a 1dbb
00000100: 0ed9 e53c ada0 8bbc 350f 153c f294 223c
00000110: 07cb 08bc 00e1 64bc 2db1 87bc 0f0b 033c
00000120: 68da 00bc de33 c2bc 8af8 9dbc 5341 2cbc
00000130: 75ad 03bd 8d42 ad3d 5068 febb 2021 bfbb
00000140: 6282 cd3c cd09 373c eac1 5c3d 86e4 a6bc
00000150: 328c c43c 3663 70bc 45bf 26bc 8938 88bc
00000160: 571b 7b3d 56cb c13c 4826 93bc b031 58bc
00000170: af91 2ebc 1a5a 9e3d d23a 623c 9417 99bc
00000180: 87aa d73b 9828 c4bb 7459 b839 21ac df3c
00000190: 2cb3 b93b e701 993c fa8a 003d aa99 433d
000001a0: ad96 1d3d f5e0 2cbc 9b86 28bc 3330 583c
000001b0: c9be b3bc 104a 8bbc 82ba 36bc 4836 bf3c
000001c0: 776e 4c3c 8153 5c3b b810 acbc 1deb c0bc
000001d0: 8763 64bc 4bc4 c8bc 2366 333d 4dd4 8fbc
000001e0: cc8e acbc 97a1 27bd 8d8e 17bc 3e83 003d
000001f0: 6a2c 103d 231f 8f3d 5ed3 1a3c 404f a5bb
00000200: f786 163d b8f1 4d3d 8364 8cbd 810b b13c
00000210: 0381 c1bd b0d5 903d 9329 083c 5aa4 133e
00000220: 2f04 95bc 2ad6 41bc 6a4c aa3c bb5f 0cbd
00000230: beb1 dfbc 51cf 833c 9cef a53b dfd0 fabc
00000240: 1a2a 5d3c 9165 0a3c 6d90 dbbc aab7 3ebc
00000250: 1d42 96bb 4337 4abc 7acb 253c dbf2 283d
00000260: 1db4 933c d2c6 023d c71d b33c 4556 9c3c
00000270: 7726 05bc ae8b 30bc c565 84bc e3cc f73b
00000280: fd3e 26bd b64e 78bc 50c7 3f3d ed66 8aba
00000290: 6d7f 333c 3fc4 523c 19be d7b9 fafe c4bc
000002a0: b2dd 7bbd 36b0 c93c 647a 8bba 559c 823c
000002b0: 3fa6 1a3d 13ce 93bc 79b2 a8bc ff81 a9bc
000002c0: b1fe bfbc 0439 39b9 2efa 39bb dfcb a2ba
000002d0: aff3 833c 9558 e13b 06f5 543c c45a 81bc
000002e0: 27b6 9d3c 4173 a4bc ff64 cdbc 1767 903c
000002f0: 0e89 69bc 5bcd 8a3a d942 823c 81e5 c73b
00000300: 1910 1a3d eb22 c4bc a07b d0bc c3f8 273c
00000310: 73d5 13bd f9dd 303b 74bf 34ba 0132 753c
00000320: 1ab3 723c 758b d5bb cb8d 11bb ef99 24bd
00000330: 0bc5 3abc 5ac3 563d aae8 a83c c402 0fbd
00000340: aa52 debc 096e 8cbc f16e c2bb 880d 3fbc
00000350: 7e66 b03a c7c6 e4bc 9a96 c1bc cf37 1c3c
00000360: 8ae7 c43c 0a2e e1bc 8ec0 26bb f143 c53c
00000370: f8eb e43a b095 e7bb 6e10 b73a 3227 16bc
00000380: 6040 8d3c dc3c febc af37 fb3c 4021 dabb
00000390: f691 fdbc f689 9abc 6d96 35bc 2fa2 653c
000003a0: 5974 903d 59c3 8fbb fe64 32bc 0a23 fd3a
000003b0: a7e7 e7bb 195e 86bb ef5d 3abc 32ee c7bc
000003c0: 7bd7 903a 02f9 c3bc e3af ccbc 1d75 803c
000003d0: 15b1 463c c0f5 65bc f865 19bc fb56 0cbd
000003e0: 97c5 a83c 34f0 cabc 3d4f 2fbc d2d2 ca3c
000003f0: d4e9 ba3b 916a 8bbc a53b b5bc 18e0 eebb

model.layers.0.bias f4 [16]
0.24047929 0.046895258 0.38116816 0.20210266 0.3217376 0.4582627 0.28404734 0.22658195
0.3956464 0.28315538 0.28505018 0.24139994 0.22379589 0.19151965 0.22161378 0.3460943
00000000: 3440 763e 3e15 403d 7928 c33e 00f4 4e3e
00000010: caba a43e 69a1 ea3e a76e 913e 1905 683e
00000020: 2a92 ca3e bef9 903e 19f2 913e 8c31 773e
00000030: c02a 653e ba1d 443e b9ee 623e 4633 b13e

model.layers.3.weight f4 [7, 16]
-0.25471154 0.22338365 0.021928797 0.55566216 -0.61582494 -0.3219349 0.29328528 0.65249306
0.48872498 0.108468495 0.37567917 -0.01965686 0.28720593 -0.3563407 -0.28867313 -0.3204366
-0.30538264 0.5481018 0.56912416 -0.2405302 -0.23582882 -0.4034782 0.1338238 0.656357
-0.7348243 0.73089844 -0.3217798 -0.2620849 0.6560054 0.1300175 -0.12124907 -0.53191453
-0.28514177 -0.15935734 0.51975334 -0.25679222 -0.13760622 0.68976265 -0.59657425 0.39658174
-0.0489045 0.12559578 -0.60351807 -0.462778 0.044093773 -0.16766259 -0.30023178 0.4867162
-0.09651118 -0.18797779 -0.39837596 0.15860273 -0.43195936 0.95086217 0.47039485 -0.40875554
0.37541053 -0.5240473 -0.053093944 -0.31777567 -0.5436507 -0.34428325 0.11035264 0.28420827
0.5950403 -0.13257489 -0.8851487 -0.16525634 0.39991525 0.3878186 -0.015652873 -0.6187666
0.26156834 0.3902353 0.0549178 0.20546587 -0.18151103 0.397288 0.6084939 0.46671128
0.32368517 -0.23085721 -0.5580368 0.41474825 0.90322673 -0.6799781 0.58454156 -0.09436212
-0.53714573 -0.3180415 -0.4696783 0.20023641 0.113107525 0.0320675 -0.10233763 -0.12545536
-0.35088012 -0.24689218 0.75308543 -0.47169062 -0.104731455 -0.5755748 -0.08035145 -0.7021304
0.37746125 0.019506453 0.88500786 0.5607027 -0.53032416 -0.07150376 0.098730125 -0.10180107
00000000: 8d69 82be afbe 643e 05a4 b33c e03f 0e3f
00000010: b4a6 1dbf a7d4 a4be 7d29 963e c909 273f
00000020: 293a fa3e bb24 de3d 0559 c03e 6c07 a1bc
00000030: a80c 933e 4a72 b6be f7cc 93be 4410 a4be
00000040: 1d5b 9cbe 6650 0c3f 1fb2 113f 8c4d 76be
00000050: 1c7d 71be b294 cebe 1b09 093e 0307 283f
00000060: 721d 3cbf 291c 3b3f 52c0 a4be fe2f 86be
00000070: f8ef 273f 4f23 053e 6f51 f8bd 8d2b 08bf
00000080: 1afe 91be 922e 23be 8e0e 053f 457a 83be
00000090: a5e8 0cbe 4994 303f 17b9 18bf c30c cb3e
000000a0: 1650 48bd 2e9c 003e 2980 1abf 3df1 ecbe
000000b0: ac9b 343d beaf 2bbe fbb7 99be de32 f93e
000000c0: a7a7 c5bd 407d 40be eff7 cbbe c168 223e
000000d0: c729 ddbe b46b 733f 98d7 f03e 6848 d1be
000000e0: cf35 c03e f727 06bf 0979 59bd 7eb3 a2be
000000f0: b12c 0bbf e545 b0be 9100 e23d bf83 913e
00000100: 9054 183f b6c1 07be 1b99 62bf f538 29be
00000110: b1c1 cc3e 2990 c63e 743a 80bc 7d67 1ebf
00000120: 49ec 853e eccc c73e 7df1 603d a565 523e
00000130: 07de 39be 5569 cb3e 42c6 1b3f c8f4 ee3e
00000140: 10ba a53e d565 6cbe 80db 0ebf e259 d43e
00000150: de39 673f 0b13 2ebf 84a4 153f ed40 c1bd
00000160: 6282 09bf 56d6 a2be ad79 f0be c60a 4d3e
00000170: eba4 e73d 3659 033d 6496 d1bd 5f77 00be
00000180: 8fa6 b3be 4ed1 7cbe 35ca 403f 6f81 f1be
00000190: 727d d6bd df58 13bf 4d8f a4bd d1be 33bf
000001a0: 9a42 c13e ffcb 9f3c e08f 623f 368a 0f3f
000001b0: 53c3 07bf 9070 92bd 0533 ca3d 147d d0bd

model.layers.3.bias f4 [7]
-0.34669793 -0.35444394 0.20710783 0.24291052 -0.29535463 0.48711333 0.021943947
00000000: 6482 b1be ad79 b5be 1314 543e 89bd 783e
00000010: b938 97be eb66 f93e cbc3 b33c
