PretrainedModels/NodeLevelGNN.ckpt (torch, 95967 bytes, 4 tensors)

model.layers.0.bias f4 [16]
0.27829266 0.145992 0.30651274 0.2042852 -0.10852028 0.37490404 0.3026402 0.36133885
0.3963913 0.63740385 0.38751376 0.21110786 0.61249083 0.2814207 0.27046043 0.21888205
00000000: 607c 8e3e ed7e 153e 3def 9c3e 2430 513e
00000010: e13f debd 6cf3 bf3e a8f3 9a3e 6801 b93e
00000020: cdf3 ca3e e62c 233f 3468 c63e a92c 583e
00000030: 33cc 1c3f 6016 903e ca79 8a3e 9e22 603e

model.layers.0.lin.weight f4 [16, 1433]
-0.036943145 0.011819973 0.077510126 0.093662016 -0.29006046 0.04172277 -0.035072196 -0.050445132
0.045950554 -0.01659817 -0.024776928 0.00969974 -0.021101369 -0.017423702 0.021519369 -0.060675807
-0.037777346 0.067811176 0.020189747 -0.20765837 -0.060006876 -0.008923385 0.03856141 0.0035235272
0.03890268 -0.009646467 -0.01768269 0.023677923 -0.016138451 -0.05804615 0.030864622 -0.02186815
-0.039188337 0.04592638 0.07273068 -0.027502533 -0.017371522 0.023186564 0.11619564 0.032096785
-0.12260913 -0.0129172085 -0.01493068 -0.0228453 0.04960512 0.1648977 -0.007551394 -0.017384768
-0.07747466 -0.01230829 0.08047109 -0.013713706 -0.13493481 0.028196532 0.017395921 0.011182154
-0.023657653 0.005396628 -0.048122846 -0.09257042 0.004009303 -0.00014964679 -0.053395838 0.020598443
-0.07562359 0.062324967 0.02410559 -0.003987852 -0.04640157 0.06247951 0.07373003 -0.026153078
0.01570876 -0.042627264 0.014139378 -0.05919427 0.072785735 -0.07014788 -0.031543057 0.016810097
0.022725353 0.02166923 -0.07701977 0.051605176 0.020345055 -0.01033265 0.056420587 -0.036292404
0.06446085 0.048059117 0.014828918 0.052790377 -0.018554963 0.037262026 0.018568642 0.04899408
0.03078859 -0.024896663 0.032829717 0.1492112 0.039538722 -0.0596867 0.036921747 -0.055942997
-0.071630925 -0.028198851 -0.028260166 -0.0103631755 0.069885716 -0.021584298 -0.013606007 0.0025352219
-0.025408125 -0.02941962 0.059372377 -0.028910173 0.03404861 -0.017544227 0.01783661 -0.05486494
-0.002070757 -0.015288106 0.06801122 0.027516803 -0.06425163 -0.12171533 0.070134446 -0.004800031
-0.09502183 0.003430897 -0.068768956 0.044316176 0.06778773 -0.02486904 -0.010246655 -0.108628154
-0.05574184 0.039351672 -0.013362183 0.05057648 0.045647055 0.024410868 -0.0024210894 -0.08519962
0.0020612355 0.036208883 0.01843871 0.061564114 0.066591494 0.042029437 -0.04908329 -0.02878142
-0.00061652734 -0.0570702 -0.06601222 -0.07210421 0.0518538 0.0385696 -0.025831422 0.019028418
-0.037405122 -0.0027334779 -0.04738934 0.003692097 -0.037672028 0.02235018 -0.020933287 -0.040327318
0.11134513 0.027816813 0.03957616 0.018819036 -0.022273712 0.028949408 0.011564144 0.02967689
-0.072670296 0.025145914 -0.03569315 -0.06935719 -0.02605639 -0.044167433 0.024693172 -0.018583005
0.008121886 0.045837246 0.069085255 0.081768475 0.022547591 -0.04558881 0.046062246 0.025496032
-0.014786208 -0.03195675 0.09333298 0.0012534554 0.052942533 0.03422391 -5.5121705e-05 0.049840856
0.014646606 0.04173051 -0.038638547 0.08709325 -0.058667026 -0.043694712 -0.01374657 -0.065356776
-0.0077773044 0.058986347 0.018284349 0.0860314 0.1309644 0.07569803 -0.06888867 -0.014196012
0.009141087 -0.0617485 -0.012801116 -0.03199017 0.03609337 -0.027185308 -0.024372723 -0.037189513
0.010798299 -0.07290424 0.023211299 -0.023828855 -0.05266645 -0.008046765 -0.039898206 0.0016448109
-0.020633956 -0.080960244 -0.033104144 -0.011773121 0.041865166 0.026281487 -0.0814821 -0.03191228
0.027697602 0.023428615 -0.045124836 0.073398545 0.055454213 -0.061027013 0.0535526 0.008975521
-0.0102064675 0.023117784 -0.036926795 -0.031107994 0.03106874 -0.0497381 -0.016368985 0.026669692
00000000: b251 17bd 8fa8 413c a1bd 9e3d dfd1 bf3d
00000010: ce82 94be 7fe5 2a3d dda7 0fbd 8e9f 4ebd
00000020: a636 3c3d e3f8 87bc fcf8 cabc a9eb 1e3c
00000030: c7dc acbc 27bc 8ebc 6349 b03c 3287 78bd
00000040: 6bbc 1abd 96e0 8a3d f864 a53c 65a4 54be
00000050: c5c9 75bd 6433 12bc 92f2 1d3d faea 663b
00000060: 6b58 1f3d 370c 1ebc 4adb 90bc 34f8 c13c
00000070: c934 84bc cdc1 6dbd ced7 fc3c d624 b3bc
00000080: f383 20bd 4d1d 3c3d d3f3 943d fe4c e1bc
00000090: b94e 8ebc c0f1 bd3c fbf7 ed3d eb77 033d
000000a0: 7f1a fbbd b3a2 53bc d09f 74bc 1126 bbbc
000000b0: bd2e 4b3d f1da 283e af71 f7bb 806a 8ebc
000000c0: 09ab 9ebd b6a8 49bc 07ce a43d 74af 60bc
000000d0: 5a2c 0abe 6afc e63c e481 8e3c 5a35 373c
000000e0: b2cd c1bc 32d6 b03b 761c 45bd 8f95 bdbd
000000f0: 7960 833b 81ea 1cb9 98b5 5abd 11be a83c
00000100: 8ae0 9abd 7748 7f3d 1679 c53c 87ac 82bb
00000110: 930f 3ebd 84ea 7f3d c5ff 963d fb3e d6bc
00000120: a8af 803c ed99 2ebd daa8 673c b175 72bd
00000130: b010 953d b1a9 8fbd 4b33 01bd 54b5 893c
00000140: 852a ba3c ab83 b13c 8bbc 9dbd f35f 533d
00000150: acaa a63c 464a 29bc 4619 673d 58a7 14bd
00000160: 0d04 843d a3d9 443d fdf4 723c b93a 583d
00000170: 9400 98bc 11a0 183d 441d 983c 04ae 483d
00000180: 5a38 fc3c 16f4 cbbc 7478 063d d2ca 183e
00000190: 5bf3 213d 0b7a 74bd 423b 173d 7c24 65bd
000001a0: 3cb3 92bd 4701 e7bc dd81 e7bc 4fca 29bc
000001b0: 3e20 8f3d 8ed1 b0bc bbeb 5ebc f725 263b
000001c0: b324 d0bc 6a01 f1bc 7330 733d 07d5 ecbc
000001d0: 8e76 0b3d e9b8 8fbc 151e 923c 0fba 60bd
000001e0: 8ab5 07bb f77a 7abc 7749 8b3d eb6a e13c
000001f0: 5c96 83bd e345 f9bd a6a2 8f3d 9449 9dbb
00000200: ce9a c2bd e6d8 603b bdd6 8cbd e184 353d
00000210: 4bd4 8a3d 28ba cbbc 96e1 27bc 7078 debd
00000220: 8e51 64bd 382f 213d 0fed 5abc 4829 4f3d
00000230: 68f8 3a3d 4df9 c73c 24ab 1ebb 237d aebd
00000240: cb15 073b c44f 143d c70c 973c a72a 7c3d
00000250: 1f61 883d 0f27 2c3d 8f0b 49bd 03c7 ebbc
00000260: 739e 21ba 71c2 69bd 6a31 87bd 5fab 93bd
00000270: a664 543d 28fb 1d3d 6b9c d3bc 7ce1 9b3c
00000280: 1d36 19bd 2624 33bb 531b 42bd 1cf7 713b
00000290: fc4d 1abd ba17 b73c 497c abbc 422e 25bd
000002a0: ea08 e43d 16e0 e33c 9d1a 223d 612a 9a3c
000002b0: 5c77 b6bc 4f27 ed3c 8977 3d3c f31c f33c
000002c0: 2ad4 94bd cefe cd3c fb32 12bd 240b 8ebd
000002d0: 3674 d5bc e9e8 34bd 5649 ca3c 633b 98bc
000002e0: a911 053c d6bf 3b3d 927c 8d3d 3b76 a73d
000002f0: bab5 b83c 55bb 3abd c4ab 3c3d 0edd d03c
00000300: da41 72bc 15e5 02bd 5d25 bf3d fc4a a43a
00000310: 45da 583d 5f2e 0c3d 7b32 67b8 ed25 4c3d
00000320: 51f8 6f3c 9ced 2a3d 7443 1ebd f25d b23d
00000330: d64c 70bd 3af9 32bd 4b39 61bc c6d9 85bd
00000340: c2d8 febb ab9b 713d 0fc9 953c 3b31 b03d
00000350: 881b 063e 9207 9b3d 8115 8dbd 6496 68bc
00000360: 7fc4 153c ffeb 7cbd c6bb 51bc 2008 03bd
00000370: a4d6 133d b9b3 debc 4ea9 c7bc 0854 18bd
00000380: 59eb 303c d14e 95bd 9f25 be3c bb34 c3bc
00000390: c7b8 57bd 94d6 03bc 4d6c 23bd b296 d73a
000003a0: 8b08 a9bc 7cce a5bd 3698 07bd 0ce4 40bc
000003b0: cf7a 2b3d 464c d73c 16e0 a6bd 73b6 02bd
000003c0: 15e6 e23c 5eed bf3c d2d4 38bd fa51 963d
000003d0: f523 633d 76f7 79bd f959 5b3d 100e 133c
000003e0: 0739 27bc 8261 bd3c 8d40 17bd 31d6 febc
000003f0: df83 fe3c 2eba 4bbd 4018 86bc 667a da3c

model.layers.3.bias f4 [7]
-0.24475114 -0.35222992 0.10499999 0.41556334 -0.0407511 0.14449234 -0.0273236
00000000: 0ba0 7abe 7b57 b4be 3c0a d73d b8c4 d43e
00000010: a0ea 26bd cdf5 133e bed5 dfbc

model.layers.3.lin.weight f4 [7, 16]
-0.29822502 1.1461183 -0.5312888 -0.60136527 0.3024672 -0.4509697 -0.20770036 0.576037
-0.036867507 0.6867091 0.568297 0.53758097 -0.5752668 -0.5516942 0.57266706 -0.32679927
0.748408 -0.43043974 -0.4415639 0.37105545 0.2460931 -0.64857966 -0.50842625 1.1680281
-0.9782286 0.036535453 -0.51872176 0.6240736 -0.2748701 -0.043680098 0.8940384 0.29099324
0.07490006 -0.06712632 0.1088948 0.42231956 -0.034810133 0.89972925 0.40439656 0.047835313
-0.80782765 -1.29527 -0.49660173 0.77517086 0.93267626 0.6312879 -0.10015608 -0.11833551
-0.82017523 -0.23514508 0.07036245 0.12640649 -0.36355737 -0.3119849 0.04317526 -0.8908186
-0.6314414 1.1053925 -0.5637283 -0.30036592 1.1009443 0.17502427 -0.5317444 0.65704966
-0.33185068 -0.18147127 0.33155948 -0.39505386 0.14848398 0.29392827 0.15471146 0.29373363
0.24055944 0.38634303 0.34004706 -0.77872497 0.9689519 -0.66379726 0.6818716 -0.76252985
-0.8049313 -0.22221126 -0.0034400339 -0.3538247 -0.35325673 -0.20355515 0.66510713 0.80673355
0.5757623 0.14868145 -0.7089165 -0.45151427 -0.8793399 0.8740555 -0.06225011 0.7867978
0.9295228 0.02012129 -0.44758445 0.48729986 -0.14281662 0.34368676 0.33614215 -1.0614314
0.47189233 0.53353995 0.638002 0.32952002 -0.75190675 -0.10441094 -0.59290236 -0.21071047
00000000: f3b0 98be 01b4 923f 8b02 08bf 13f3 19bf
00000010: fbdc 9a3e 80e5 e6be 67af 54be 2977 133f
00000020: 6202 17bd 2bcc 2f3f ea7b 113f e89e 093f
00000030: af44 13bf d53b 0dbf 4f9a 123f 3c52 a7be
00000040: ab97 3f3f 9962 dcbe aa14 e2be fbfa bd3e
00000050: d4ff 7b3e 5109 26bf 3928 02bf f281 953f
00000060: 316d 7abf 33a6 153d f3ca 04bf 4ac3 1f3f
00000070: c6bb 8cbe e7e9 32bd b3df 643f 11fd 943e
00000080: 3465 993d 8679 89bd 3d04 df3d 453a d83e
00000090: 1295 0ebd a854 663f 110d cf3e f6ee 433d
000000a0: cbcd 4ebf 68cb a5bf 9542 febe 9971 463f
000000b0: dfc3 6e3f 159c 213f a21e cdbd e359 f2bd
000000c0: 01f7 51bf dfc9 70be 301a 903d b470 013e
000000d0: 3124 babe 7cbc 9fbe 8bd8 303d b00c 64bf
000000e0: 25a6 21bf 807d 8d3f 7f50 10bf 90c9 99be
000000f0: beeb 8c3f 9039 333e 6720 08bf 6834 283f
00000100: 55e8 a9be 9bd3 39be 2ac2 a93e 8044 cabe
00000110: 2f0c 183e c47d 963e ae6c 1e3e 4164 963e
00000120: 3755 763e c1ce c53e a61a ae3e 855a 47bf
00000130: 3b0d 783f 9eee 29bf 238f 2e3f 2835 43bf
00000140: fa0f 4ebf 598b 63be 3172 61bb 8328 b5be
00000150: 11de b4be c370 50be 7644 2a3f 1786 4e3f
00000160: 2865 133f f33f 183e 8d7b 35bf e12c e7be
00000170: 6b1c 61bf 1ac2 5f3f f9f9 7ebd 956b 493f
00000180: 35f5 6d3f 67d5 a43c ca29 e5be 5e7f f93e
00000190: 853e 12be b6f7 af3e d31a ac3e fcdc 87bf
000001a0: df9b f13e 1396 083f 1954 233f d9b6 a83e
000001b0: f67c 40bf 67d5 d5bd 73c8 17bf 7cc4 57be
