DDE_II_Advanced_Topics/Lecture 6/GraphLevelGraphConv.ckpt (torch, 95967 bytes, 4 tensors)

model.layers.0.bias f4 [16]
000000 85 7f 8b 3e ed 39 0c 3e 37 4f 9a 3e 62 12 4c 3e
       0.27245727 0.13693972 0.3013856 0.19928887
000010 14 06 c3 bd bc ff b8 3e 98 ed 9d 3e 4f 9b be 3e
       -0.09522644 0.3613261 0.30845332 0.37227866
000020 f4 0d cb 3e 8c 6b 1f 3f ae 9a be 3e ef 0c 66 3e
       0.39659083 0.6227348 0.37227386 0.22465871
000030 69 6a 19 3f 4d 9b 84 3e 66 28 8c 3e 99 68 57 3e
       0.59927994 0.25899735 0.27374572 0.21035995

model.layers.0.lin.weight f4 [16, 1433]
000000 4c 75 18 bd 27 a9 44 3c 34 bf 9a 3d 7c b6 bd 3d
       -0.037221238 0.01200322 0.07556 0.09263322
000010 71 a6 8f be 23 fb 2d 3d 6e 98 0d bd a4 b2 52 bd
       -0.28056672 0.04247583 -0.034569196 -0.051439896
000020 55 ff 45 3d 75 ac 8a bc 70 b4 cc bc 03 c8 20 3c
       0.048339207 -0.016927937 -0.024988383 0.0098133115
000030 5c 51 65 bc 91 2d 89 bc 55 e1 b5 3c 21 61 70 bd
       -0.013996448 -0.01674536 0.022202173 -0.05868638
000040 46 76 19 bd 23 c6 88 3d 3f 7f 9d 3c ba 1d 51 be
       -0.03746631 0.066784166 0.019225715 -0.20421496
000050 2c c7 76 bd 2a 09 10 bc dd b1 24 3d 11 d5 be 3b
       -0.06024854 -0.008791247 0.040208686 0.0058237393
000060 ca c3 20 3d 66 ed 14 bc 35 6b 6b bc 92 d1 cc 3c
       0.03924922 -0.009089803 -0.014368822 0.025002275
000070 41 96 3a bc c5 9a 6d bd 1a b6 e6 3c c7 d0 b2 bc
       -0.011388362 -0.058008928 0.028163005 -0.021828068
000080 7b 6e 21 bd bf 34 3d 3d ae f5 95 3d 13 9a da bc
       -0.039412003 0.04619288 0.0732225 -0.026684796
000090 68 58 8e bc b4 ac bd 3c 43 75 e2 3d 87 e7 0c 3d
       -0.01737614 0.02315364 0.11057522 0.03440049
0000a0 85 09 fa bd 21 5b d5 bb 6f 11 78 bc 49 b6 ba bc
       -0.12208847 -0.0065111076 -0.015140875 -0.022791998
0000b0 41 ac 49 3d b2 d3 25 3e 88 89 fc bb 58 e6 9e bc
       0.04923654 0.16194037 -0.0077068247 -0.019396946
0000c0 64 a0 9b bd 0a 7c 48 bc d3 dd 9f 3d bf eb 1f bc
       -0.075989515 -0.0122366045 0.078059815 -0.009760796
0000d0 39 91 04 be 77 73 e9 3c a6 52 53 3c b2 c2 1d 3c
       -0.12946023 0.02849744 0.012898123 0.0096289385
0000e0 aa 78 bc bc da 9b bc 3b ad 9b 47 bd eb e5 b5 bd
       -0.023006756 0.0057558836 -0.04873245 -0.08881744
0000f0 ec e7 83 3b b2 dd 7b bb 93 c5 59 bd 87 95 b7 3c
       0.00402545 -0.0038431701 -0.053166937 0.022410167
000100 9f c5 92 bd 37 3d 77 3d bc 17 b7 3c 4e 6b 33 bb
       -0.071665995 0.060361113 0.022350185 -0.002737719
000110 47 b5 3d bd 15 58 7d 3d bb ff 8f 3d 11 c5 d4 bc
       -0.046315458 0.06185158 0.070311986 -0.025972875
000120 b4 b7 83 3c 8f f3 2c bd 16 92 4b 3c 75 c9 6f bd
       0.016078807 -0.042224463 0.012424966 -0.058541734
000130 00 d3 8d 3d 8d c4 8d bd 96 86 f3 bc 41 18 8e 3c
       0.06925011 -0.06922255 -0.029727262 0.01734555
000140 51 8f bd 3c 37 a1 bf 3c f5 b5 9a bd 3e d9 42 3d
       0.023139628 0.023392303 -0.07554237 0.04757046
000150 51 80 b2 3c 3b f2 ee bb 92 25 5d 3d ce 09 18 bd
       0.021789702 -0.0072920597 0.053990908 -0.037118725
000160 13 6e 87 3d 9c 38 45 3d 64 94 73 3c 6d f5 52 3d
       0.06612792 0.04814969 0.014866922 0.051503588
000170 59 2c 7f bc 59 7e 38 3d f9 12 a6 3c 79 61 4a 3d
       -0.015574538 0.04504237 0.020272719 0.049409363
000180 a1 1c f4 3c b5 fe cc bc 8c 8c 06 3d 9d dc 11 3e
       0.029798808 -0.025023798 0.03284888 0.14244314
000190 96 53 21 3d 34 4f 74 bd 6f 67 19 3d 8f fb 5e bd
       0.039386354 -0.059645846 0.037452158 -0.054439124
0001a0 f0 d5 8f bd 82 19 f0 bc 46 da f6 bc bf 80 1c bc
       -0.07023227 -0.029309038 -0.030133378 -0.00955218
0001b0 0b bd 89 3d 59 ee b2 bc d6 0f 54 bc 9e ee 42 3b
       0.0672551 -0.021842169 -0.012943229 0.0029744278
0001c0 94 1c de bc e2 04 f2 bc 4a 5d 6d 3d 08 5c f0 bc
       -0.027113236 -0.029543344 0.057950296 -0.029340759
0001d0 fe ce fa 3c e5 e0 92 bc 7b 50 8f 3c cc 0e 5e bd
       0.03061628 -0.017929504 0.01749443 -0.05421333
0001e0 7f da 24 3a 12 0b 70 bc 51 98 88 3d 44 ce e5 3c
       0.0006288662 -0.014651077 0.06669677 0.028052457
0001f0 af f8 7c bd 99 01 e6 bd 56 6f 8c 3d cd 61 96 bb
       -0.0617606 -0.112307735 0.06857173 -0.0045892955
000200 ec 24 c2 bd 49 b0 7c 3b 7f 9e 8a bd cb de 2b 3d
       -0.094796985 0.0038557223 -0.06768512 0.04196052
000210 d1 fa 77 3d ab 87 ca bc 74 79 33 bc 60 2a d1 bd
       0.06054193 -0.024722895 -0.01095425 -0.102131605
000220 59 b1 5a bd f2 2d 21 3d 1f 56 5b bc c1 7b 48 3d
       -0.05339179 0.039350457 -0.013387232 0.048946146
000230 b6 6b 25 3d 4b 31 bf 3c 97 67 63 bb 90 53 ae bd
       0.040385924 0.023338934 -0.0034699196 -0.08512032
000240 a0 75 d7 3a ac e8 14 3d 60 9d a6 3c 54 3b 79 3d
       0.0016438253 0.036354706 0.020338714 0.060847595
000250 93 97 89 3d a0 43 16 3d 5a 07 42 bd 99 71 c1 bc
       0.067183636 0.036685586 -0.047370292 -0.023613738
000260 f4 5c 5a ba ba 85 66 bd 38 d0 84 bd c3 ae 8e bd
       -0.0008329891 -0.056279875 -0.06485027 -0.06966927
000270 b3 10 47 3d f1 03 15 3d ed 32 d3 bc 8b a1 9b 3c
       0.04859991 0.036380712 -0.02578112 0.018997928
000280 2e 23 13 bd 65 bd 32 bb c3 ba 41 bd 68 0f 64 3b
       -0.03592222 -0.0027273532 -0.04729725 0.0034799222
000290 3a bd 1b bd ef c9 bb 3c f4 84 b2 bc c2 94 29 bd
       -0.038022257 0.022923438 -0.021791913 -0.041401632
0002a0 35 01 de 3d 07 bd e6 3c 24 62 28 3d aa f4 9a 3c
       0.10840074 0.028166307 0.04110922 0.018915493
0002b0 cc b5 b3 bc d6 92 e3 3c 25 13 2c 3c c8 ef f3 3c
       -0.021937273 0.027779978 0.010502611 0.029777423
0002c0 f7 b5 92 bd d5 f4 db 3c 9c 96 17 bd 88 d4 8e bd
       -0.07163613 0.026850143 -0.037008867 -0.06974131
0002d0 29 e7 d7 bc d3 9d 38 bd fa 30 c2 3c a0 27 a2 bc
       -0.026355343 -0.045072388 0.023704994 -0.019794285
0002e0 4e dd 0a 3c e7 7b 3c 3d 3d 88 8e 3d 86 37 9b 3d
       0.008475615 0.0460166 0.06959579 0.0757895
0002f0 11 39 ab 3c 91 ef 2c bd 38 ce 3c 3d 97 ff ca 3c
       0.020901235 -0.042220656 0.046095103 0.024780078
000300 8d b8 83 bc b5 a7 ff bc 1b b3 bb 3d 73 9b 71 39
       -0.016079212 -0.031207899 0.09165021 0.0002304146
000310 a9 a3 59 3d 2a 3f 11 3d 95 40 2d ba 66 4b 4a 3d
       0.053134594 0.03546063 -0.000660905 0.04938831
000320 cf d4 61 3c b3 66 2d 3d 3c 82 1f bd ad 68 ab 3d
       0.013783648 0.04233427 -0.03894256 0.08369575
000330 cb 41 71 bd df 2f 15 bd 63 6f 69 bc f7 c1 85 bd
       -0.058900636 -0.036422607 -0.014247748 -0.065311365
000340 a0 9b 19 bc 8a a2 71 3d 61 b1 95 3c f9 f5 a6 3d
       -0.009375483 0.0589929 0.018273057 0.08152384
000350 95 3e 04 3e 74 b3 98 3d 28 05 8d bd e6 6e 64 bc
       0.12914498 0.07456103 -0.06885749 -0.013942456
000360 9d 97 19 3c ad 9f 74 bd b5 2d 54 bc 12 17 04 bd
       0.009374526 -0.05972259 -0.0129503505 -0.032248564
000370 25 b9 12 3d af ef d9 bc 4f bc bc bc 9c 72 17 bd
       0.0358211 -0.026603548 -0.023039011 -0.036974534
000380 ca 34 3a 3c f0 84 8f bd 11 7d c6 3c e9 bd bf bc
       0.011365125 -0.07007778 0.024229558 -0.023405986
000390 c0 a5 50 bd 22 ea 0b bc c8 16 21 bd 9a b0 92 3a
       -0.05093932 -0.008539708 -0.039328367 0.0011191547
0003a0 b3 33 9f bc d5 73 a2 bd 95 0a 0e bd 28 00 50 bc
       -0.019433832 -0.079322495 -0.03467806 -0.01269535
0003b0 98 41 2f 3d 3b c7 d4 3c 2a 6f ab bd e8 ab 02 bd
       0.042787164 0.025973907 -0.08370812 -0.031902224
0003c0 02 ba d9 3c 54 30 c0 3c 03 e8 3b bd df 83 93 3d
       0.026577953 0.023460545 -0.04587556 0.07202887
0003d0 dc 43 65 3d 64 54 7b bd cd bb 5b 3d db 96 35 3c
       0.05597292 -0.061359778 0.053645898 0.01108333
0003e0 88 35 35 bc 5d e7 95 3c 32 04 1b bd 6b 12 09 bd
       -0.011060126 0.0182988 -0.037845798 -0.03346483
0003f0 3a 9c fc 3c bb 93 48 bd 17 6a 8b bc 8b d3 dc 3c
       0.030836213 -0.04896901 -0.017018361 0.02695634

model.layers.3.bias f4 [7]
000000 b4 c3 70 be a1 8a af be 41 c1 bc 3d bd 49 cc 3e
       -0.23512155 -0.34285453 0.09216548 0.39900008
000010 b4 a0 46 bd 49 f3 1a 3e 04 32 83 bc
       -0.048493102 0.15131868 -0.01601506

model.layers.3.lin.weight f4 [7, 16]
000000 de 6f 96 be 13 e4 89 3f 61 1a 05 bf 3f 20 15 bf
       -0.29382223 1.0772728 -0.51993376 -0.5825233
000010 5c 76 9c 3e 56 c1 e7 be 6d 7f 4b be 11 93 0f 3f
       0.3055905 -0.4526469 -0.19872828 0.5608378
000020 f4 b0 eb bc 26 a9 34 3f d7 f8 09 3f fe ce 03 3f
       -0.028770901 0.705706 0.53895324 0.5148772
000030 f0 c6 0e bf b5 4c 04 bf c5 b2 11 3f 1f 05 99 be
       -0.55772305 -0.51679546 0.56913406 -0.2988672
000040 8a cf 3b 3f ac 03 ce be 00 a6 dc be 65 68 b7 3e
       0.73363554 -0.40237176 -0.43095398 0.35821834
000050 49 92 7c 3e b1 a0 21 bf 71 67 00 bf 2f a0 8d 3f
       0.24665178 -0.6313582 -0.5015784 1.1064509
000060 45 63 73 bf 78 1e 00 3d 40 2b f7 be 94 8b 25 3f
       -0.9507335 0.031279057 -0.48275185 0.64666104
000070 e6 ac 8a be ff 68 31 bd 2b b5 5b 3f fe cc 86 3e
       -0.27085036 -0.043313023 0.85823315 0.26328272
000080 ee 36 92 3d 26 10 85 bd d7 0d df 3d 71 bc cc 3e
       0.07139383 -0.06497221 0.108913116 0.3998752
000090 6c 88 0d bd 17 8d 60 3f 21 46 cd 3e 51 81 49 3d
       -0.03455393 0.87715286 0.40092567 0.04919559
0000a0 ef 8e 4a bf de e7 9f bf 80 58 f0 be 28 10 46 3f
       -0.7912435 -1.2492635 -0.4694252 0.773684
0000b0 df 17 66 3f cb 19 1a 3f be 08 ba bd b7 85 e8 bd
       0.89880174 0.60195607 -0.09083699 -0.11353629
0000c0 4c 64 4b bf de 36 6b be 2d 09 48 3d c6 c3 03 3e
       -0.79449916 -0.22970149 0.048836876 0.1286765
0000d0 68 00 bb be 70 27 93 be 10 34 3e 3d bf ce 5b bf
       -0.36523747 -0.28741026 0.04643637 -0.85862345
0000e0 a8 cd 1f bf 10 d8 8b 3f a1 07 0f bf 2e 73 9c be
       -0.6242318 1.0925312 -0.55871016 -0.30556625
0000f0 cc 8c 8c 3f 79 ea 39 3e b9 b3 01 bf 84 62 20 3f
       1.0980468 0.1815585 -0.5066486 0.6265032
000100 5a f0 a1 be a9 5e 1f be 57 e7 9d 3e bc 11 be be
       -0.31628686 -0.15563454 0.3084056 -0.37122905
000110 c4 b0 18 3e b8 c8 8b 3e 28 9a 1b 3e a7 1d 90 3e
       0.1491118 0.27301574 0.15195525 0.28147623
000120 1d 60 61 3e 09 6a c0 3e 53 b3 ab 3e 3f c5 4a bf
       0.2200932 0.37580898 0.3353525 -0.79207224
000130 ee 45 6e 3f 2d ee 1f bf 03 f1 28 3f d8 df 37 bf
       0.93075454 -0.624728 0.65992755 -0.71825933
000140 91 c1 49 bf f9 b8 5a be 45 ac 54 3b 58 04 ac be
       -0.78810984 -0.21359624 0.0032451313 -0.33597064
000150 85 07 b6 be 5f 66 44 be bf 41 27 3f 01 9b 51 3f
       -0.35552612 -0.19179676 0.65334696 0.8187714
000160 c4 d3 0c 3f 84 25 03 3e dd 52 30 bf 4a 37 ee be
       0.5501063 0.1280728 -0.6887644 -0.46526557
000170 82 c5 58 bf e5 25 53 3f c1 56 50 bd d6 e7 44 3f
       -0.84676373 0.824797 -0.050863985 0.76916254
000180 e5 20 62 3f 00 66 9b 3c 23 d9 de be ab 87 eb 3e
       0.88331443 0.018969536 -0.43525037 0.46001944
000190 87 b0 13 be 2b 83 ab 3e e8 5f ad 3e 79 d1 81 bf
       -0.14422809 0.3349851 0.33862233 -1.0142051
0001a0 dd 69 e8 3e 28 35 06 3f 2c ab 14 3f ce 96 bb 3e
       0.45393267 0.5242486 0.5807369 0.36638492
0001b0 4d 9e 3a bf a2 e3 d7 bd 7e ee 12 bf 40 99 57 be
       -0.728978 -0.105414644 -0.5739516 -0.21054554
