DDE_II_Advanced_Topics/Lecture 6/NodeLevelMLP.ckpt (torch, 548731 bytes, 16 tensors)

model.GNN.layers.0.att_src f4 [1, 1, 256]
0	0x3b1df6f3	0.0024103492
1	0xbb8952fa	-0.0041908
2	0xbcce27bf	-0.025165437
3	0x3da890a9	0.08230717
4	0xbc5b92e5	-0.013401722
5	0x3d8795f4	0.06620398
6	0xba2aab76	-0.0006510535
7	0x3b3abdc6	0.0028494461
8	0xbc8bff2b	-0.017089447
9	0xbd1db054	-0.038498238
10	0xbb8e2676	-0.004338081
11	0x3d2a6cd7	0.041607704
12	0x3d56cf44	0.052443758
13	0x3cb4aaad	0.02205404
14	0xbc082814	-0.008310337
15	0x3ba02efe	0.0048884144
16	0xbc692bcb	-0.014231632
17	0x3b827007	0.00398064
18	0x3bd18020	0.0063934475
19	0x3cabb8c0	0.02096212
20	0x3caf903e	0.021431085
21	0x3dc1268e	0.09431182
22	0xbcdc4f77	-0.02689336
23	0x39a66036	0.0003173367
24	0x3be7a5e1	0.007069335
25	0x3b407de2	0.0029371907
26	0x3c975fee	0.01847836
27	0x39852470	0.00025394885
28	0x3d866d82	0.06563856
29	0xbcb974f3	-0.022638774
30	0xba046e77	-0.0005051861
31	0xbe10f185	-0.14154632
32	0xb91ee0f8	-0.00015151862
33	0xbb9ffe50	-0.0048826113
34	0xbacd1fa6	-0.0015649691
35	0xbd2738c2	-0.040825613
36	0x3c95c3e4	0.018281884
37	0x3a9b0f75	0.0011830168
38	0xbd059c33	-0.032619666
39	0xbcdb97ce	-0.026805785
40	0xbb9e39aa	-0.0048286514
41	0xbe112071	-0.14172532
42	0xbe2620c6	-0.1622344
43	0x3cf48e6e	0.029853072
44	0xbc5516ab	-0.013005893
45	0xba2d255d	-0.0006604994
46	0xbb0b0652	-0.0021213484
47	0xbd35b670	-0.04436344
48	0x3bac5c25	0.005260008
49	0x3e1c804c	0.15283316
50	0x3bd168bc	0.006390659
51	0xbaae62e4	-0.0013304618
52	0x3bb5587a	0.005534229
53	0x3db5dd07	0.08880048
54	0xbb91c02a	-0.0044479566
55	0x3dc128cd	0.0943161
56	0xbe221b34	-0.1583069
57	0xbb52d9b8	-0.0032173228
58	0x3d649828	0.05580917
59	0xbdc66fb5	-0.09689275
60	0xbba18e35	-0.0049302825
61	0xbda2b9d4	-0.079456
62	0xbcd12d53	-0.025534308
63	0xbb48e2b8	-0.0030652713
64	0x3c676942	0.0141242165
65	0xbd91c225	-0.07117108
66	0xbd4d00e1	-0.050049666
67	0xbe12b659	-0.14327373
68	0x3a7516d7	0.00093494117
69	0xbc093270	-0.008373842
70	0xbb3f02b3	-0.0029145896
71	0xbc9eb8a0	-0.019375145
72	0x3da2a94b	0.07942446
73	0xbd17660c	-0.036962554
74	0xbdff3a9d	-0.124623515
75	0xbdd355d2	-0.10319103
76	0x3db31fd9	0.08746309
77	0xbc95266f	-0.018206803
78	0xbc924cb8	-0.017858848
79	0x3c9ef6c2	0.019404773
80	0x3a84e1b0	0.0010138061
81	0x3aead876	0.0017917294
82	0x3ab61183	0.0013890717
83	0xbd3bae17	-0.045820322
84	0xbde2abad	-0.11067901
85	0xbc605d9e	-0.013694195
86	0xbbca653e	-0.00617662
87	0x3d894fcf	0.067046754
88	0xbca078da	-0.019588877
89	0x3b151846	0.0022750064
90	0xbca6078c	-0.02026727
91	0x3c7b7f16	0.015350124
92	0x3d83ebd4	0.06441465
93	0xba5e0146	-0.00084688177
94	0x3dd7b625	0.10532788
95	0x3dc817c5	0.09770159
96	0xbb471075	-0.00303748
97	0x3b9c68dd	0.004773243
98	0x3d4a1d41	0.049344305
99	0xbd70db44	-0.058802858
100	0x3ab43b74	0.0013750629
101	0x3b58380d	0.0032992393
102	0xbde9deb2	-0.11419429
103	0xb9654234	-0.00021863804
104	0x3c3e5e79	0.011619204
105	0x3e0011ef	0.12506841
106	0x3d846d76	0.064661905
107	0xbd7633ce	-0.060108
108	0xba230563	-0.0006218759
109	0x3d2d3a3d	0.04229187
110	0x3b676f80	0.0035314262
111	0xbb36bf02	-0.0027884846
112	0xbd19a800	-0.037513733
113	0x3b9f4116	0.004860054
114	0xbc8f84a8	-0.01751931
115	0x3a03d2e6	0.000502868
116	0x3d6def81	0.058089737
117	0xbbe4e52a	-0.0069853263
118	0xbdf531eb	-0.11972412
119	0x3c31e029	0.010856667
120	0xbcd2f5a1	-0.02575189
121	0xbb0b227e	-0.0021230276
122	0x3a444b99	0.00074880716
123	0x3ba67e7a	0.005080995
124	0x3db97bcb	0.09056815
125	0x3a855db8	0.0010175025
126	0x3b654973	0.0034986406
127	0x3d04ee71	0.032453958
128	0x3d83cea2	0.064358965
129	0x3bf45eab	0.0074575744
130	0x3ce41ebb	0.027846685
131	0x3b0a835f	0.0021135432
132	0x3dda8ed6	0.10671775
133	0x3a53e343	0.0008082876
134	0x3af80c45	0.0018924555
135	0xbd34df56	-0.044158302
136	0x3ddaedf3	0.106899165
137	0x3d2b615e	0.041840903
138	0xbba444d0	-0.005013086
139	0xbde98ae8	-0.114034474
140	0xbe270f5d	-0.16314454
141	0x3ba06280	0.0048945546
142	0xbd3fe9bc	-0.046853766
143	0x3c5b1a68	0.013372995
144	0x3c708aa3	0.014681491
145	0x3dad62fa	0.08466144
146	0x3cdefdda	0.027220655
147	0x3da10041	0.078613766
148	0x3c4f0b48	0.012636967
149	0x3d6b21f7	0.05740544
150	0xbd86935f	-0.065710776
151	0xbcbd71ea	-0.023125608
152	0xbc1980d5	-0.009369095
153	0xbbb71e4a	-0.0055883275
154	0x3c0e2f44	0.008678261
155	0xbbdff966	-0.0068351505
156	0xbb736ff3	-0.0037145584
157	0xbb07e280	-0.002073437
158	0xbcee704e	-0.029106285
159	0x3ad6b8a8	0.0016381936
160	0x3a2c72b8	0.0006578374
161	0xbc0e5424	-0.008687053
162	0xbd5f2d8a	-0.05448679
163	0xbd7261e4	-0.059175387
164	0x3b18a3c1	0.0023290964
165	0x3b4b3128	0.0031004641
166	0x39684ab0	0.00022153067
167	0xbc3d03d4	-0.011536557
168	0xbc6bfa1a	-0.014402891
169	0x3b367608	0.0027841348
170	0xbca14100	-0.019684315
171	0x3d0e2986	0.03470757
172	0xbdf7984a	-0.12089594
173	0xbbab043c	-0.0052190106
174	0xbde9dd44	-0.11419156
175	0xbd8261d2	-0.06366314
176	0xbb2c4a69	-0.002628947
177	0x3e2f6d87	0.17131625
178	0x3dcf66a8	0.10127002
179	0xbd9b02eb	-0.07568916
180	0xbcecdeec	-0.028914891
181	0x3db158fb	0.0865955
182	0x3bd83957	0.0065986323
183	0x3c92243b	0.017839542
184	0xbe0f878e	-0.14016554
185	0x3d1b5421	0.03792203
186	0x3d2e42ad	0.042544056
187	0xbbc5dcce	-0.006038285
188	0xbd6dc9fb	-0.05805395
189	0x386aeb10	5.6008867e-05
190	0xbbb0b7ff	-0.005393028
191	0xbdb41144	-0.08792356
192	0xbab5115a	-0.0013814375
193	0x3d86d4a0	0.06583524
194	0x3bdcb6dd	0.006735666
195	0xbbb69c95	-0.0055728653
196	0xbd8fe52f	-0.07026135
197	0xbe28de1a	-0.16490975
198	0xbd3983aa	-0.04529158
199	0x3d3db11b	0.04631148
200	0xbe0f98e0	-0.14023161
201	0xbbb402d4	-0.005493501
202	0x3bb6657a	0.005566296
203	0xbc29cb42	-0.010363402
204	0x3bbf9332	0.0058464045
205	0xbdcb0aeb	-0.09914192
206	0x3cd026dd	0.025409156
207	0x3d93a7d4	0.07209745
208	0x3d77008a	0.06030325
209	0x3a33574b	0.0006841316
210	0x3b8a6f61	0.004224703
211	0x3b39043d	0.0028231286
212	0x3b77b598	0.0037797447
213	0xbb8ae552	-0.004238763
214	0x3cca647a	0.024706114
215	0xbd005e19	-0.03133974
216	0xbaabb458	-0.0013100011
217	0x3df1acc1	0.11800528
218	0x3b4e4e29	0.0031479693
219	0x3a72e4fe	0.000926569
220	0xbe05c5b9	-0.13063706
221	0x3c5ede40	0.013602793
222	0x3dd0fc7d	0.10204408
223	0x3c470b77	0.0121487295
224	0x3b91c5f1	0.0044486453
225	0x3dd47324	0.10373524
226	0xbcf90ba0	-0.030401051
227	0x3c3da24a	0.011574337
228	0xbb14081c	-0.0022587841
229	0x3c434ae8	0.0119197145
230	0x3dc86e6c	0.09786686
231	0xbb750a83	-0.0037390299
232	0xbaef31b8	-0.001824907
233	0x3c907e66	0.017638396
234	0x3d60e4d7	0.05490574
235	0x3a7ac7ee	0.0009566535
236	0xbc8d7667	-0.017268373
237	0x3e23947b	0.1597461
238	0xbc5bef2c	-0.013423722
239	0x3c7bbbb3	0.015364575
240	0x3af064b8	0.0018340563
241	0x3e11d0c2	0.14239791
242	0x3c068f29	0.008212843
243	0xbd4da9b0	-0.050210655
244	0xbac297bc	-0.0014846246
245	0x3b127be2	0.0022351672
246	0x3d5c0c12	0.05372245
247	0x3cd33448	0.025781766
248	0xbc8bd685	-0.017070064
249	0x3d12dd06	0.035855316
250	0xbd90e705	-0.070753135
251	0xb910b900	-0.00013801828
252	0x3d50d4fd	0.05098437
253	0x3c6baadc	0.014383998
254	0xbdd54b09	-0.104147024
255	0x3ad13389	0.0015960793

model.GNN.layers.0.att_dst f4 [1, 1, 256]
0	0x3db81cfb	0.089899026
1	0xbb8b177b	-0.0042447424
2	0x3de40a49	0.11134774
3	0x3d041230	0.032243907
4	0x3d4bf5e2	0.04979504
5	0xbe16e9b5	-0.1473759
6	0x3e4ec102	0.20190814
7	0xbb69c6db	-0.0035671506
8	0xbd212bec	-0.039348528
9	0x3d2d5f2b	0.042327087
10	0x3dec774a	0.1154619
11	0x3e2d201b	0.16906779
12	0x3d879853	0.066208504
13	0x3c814260	0.01577872
14	0xbe07da2a	-0.13266817
15	0xbd928915	-0.071550526
16	0xbe195f1d	-0.14977689
17	0xbd96b5fa	-0.07358928
18	0xbcb8d7e5	-0.022563884
19	0x3d16b91b	0.036797624
20	0xbca14654	-0.019686855
21	0xbe1f308f	-0.15545867
22	0xbe79bbc0	-0.24388027
23	0x3c657772	0.014005529
24	0x3e8b87b0	0.2725196
25	0x3d762342	0.06009222
26	0xbe497346	-0.1967288
27	0xbcff5eee	-0.031173196
28	0x3e62888a	0.22122398
29	0xbe3c8e3d	-0.18413635
30	0x3bb056f3	0.005381459
31	0xbde4ca3d	-0.111713864
32	0x3e5452fd	0.20734783
33	0xbde1811a	-0.11010952
34	0xbe4e5410	-0.20149255
35	0x3d9da55c	0.076975554
36	0xbe2be2f8	-0.167858
37	0xbdf132f9	-0.117773004
38	0x3e8d582d	0.27606335
39	0xbd90bc95	-0.07067219
40	0x3d8fcf21	0.070219286
41	0xbc37c863	-0.0112172095
42	0xbc8da334	-0.017289735
43	0x3d71cf6a	0.059035696
44	0xbd361901	-0.04445744
45	0x3c2a21c0	0.010384023
46	0xbdec6295	-0.115422405
47	0x3dcb40e9	0.0992449
48	0x3cae51ac	0.021279179
49	0x3de1154a	0.10990389
50	0xbe30633e	-0.17225358
51	0x3e97f616	0.29679936
52	0x3c67dbba	0.014151508
53	0x3e39263b	0.1808099
54	0x3d1d60eb	0.038422506
55	0xbda940c7	-0.082643084
56	0x3db4c106	0.08825879
57	0x3e22464e	0.15847132
58	0xbe315b6a	-0.17320028
59	0x3dd64d0d	0.10463915
60	0x3cc3c921	0.023899617
61	0x3e13c51f	0.14430664
62	0x3e547b1d	0.20750089
63	0xbd6469c6	-0.055764936
64	0xbe3df1cd	-0.18549271
65	0x3e0352e2	0.12824586
66	0xbe57ddf0	-0.21080756
67	0xbddfc4f0	-0.10926235
68	0xbd935e38	-0.07195705
69	0xbe30c20e	-0.17261526
70	0xbd280e6b	-0.041029375
71	0x3cf44ed7	0.02982275
72	0xbe358c99	-0.17729415
73	0xbe1507b8	-0.14553726
74	0x3e3e5c75	0.18589957
75	0x3d3db1ca	0.04631213
76	0xbc67b36a	-0.014141897
77	0x3b21fab7	0.0024716088
78	0x3dab7de7	0.08373623
79	0xbe2a09f1	-0.16605355
80	0x3cc73135	0.024315456
81	0x3d688bfd	0.05677413
82	0xbb2fccb9	-0.0026824905
83	0x3ce4a623	0.027911251
84	0x3cd1d137	0.025612457
85	0x3e044440	0.1291666
86	0xbe07bc73	-0.13255481
87	0x3cddfc36	0.027097803
88	0xbd37479b	-0.044746023
89	0x3dbd0733	0.09229889
90	0xbcbac6f2	-0.022799943
91	0x3e114a7f	0.14188574
92	0xbd9fe049	-0.07806451
93	0x3d3b56c9	0.04573706
94	0x3de249f1	0.110492595
95	0xbdb431fd	-0.08798597
96	0x3da94527	0.08265143
97	0xbdf9ce38	-0.12197536
98	0xbb961a50	-0.0045807734
99	0x3e5f5f89	0.21813788
100	0xbd0ecceb	-0.034863394
101	0x3e0b6e36	0.13616261
102	0x3de66ae9	0.1125086
103	0x3cb6736e	0.022271838
104	0x3da869f3	0.08223333
105	0x3d5d8d3d	0.054089773
106	0x3e982fe7	0.29724047
107	0x3dedcc5e	0.116112456
108	0xbe1b4bcb	-0.15165631
109	0x3e093caf	0.13402055
110	0xbca56d68	-0.02019377
111	0xbe46f9d7	-0.19431244
112	0xbd3ff8fd	-0.046868313
113	0x3e1e9dde	0.15489909
114	0x3e068e83	0.13140301
115	0x3e299e90	0.16564393
116	0xbbb4b4c5	-0.0055147135
117	0x3cdce1bd	0.02696311
118	0x3e5cec1d	0.21574445
119	0xbd1d20c6	-0.038361333
120	0xbca65ca1	-0.02030784
121	0xbe7c40d9	-0.24634112
122	0x3d41ab47	0.047282483
123	0xbe47f66f	-0.195276
124	0x3e8af7b6	0.27142113
125	0xbb1ecbb7	-0.002423031
126	0xbe379ab1	-0.17930104
127	0x3e80ed07	0.25180838
128	0xbdba0738	-0.09083408
129	0xbe067438	-0.13130271
130	0x3e0663ad	0.13123961
131	0x3e1e50c4	0.15460497
132	0xbdee977f	-0.11649989
133	0x3d96eec9	0.073697634
134	0xbdafe2fe	-0.08588217
135	0x3e636153	0.22205095
136	0x3e360e8a	0.17778984
137	0x3ce2c2b9	0.027680742
138	0xbbf7eb3e	-0.007565885
139	0x3d1d5940	0.038415194
140	0x3d96654a	0.07343538
141	0x3e834782	0.25640494
142	0xbe02aa31	-0.12760235
143	0x3d080a8c	0.033213183
144	0x3e56a758	0.20962274
145	0xbd87bc30	-0.06627691
146	0x3e734797	0.23757778
147	0x3e52d4e1	0.2058902
148	0x3c98cc72	0.018652175
149	0x3e4d1974	0.20029241
150	0x3cc5d570	0.024149626
151	0xbe81ee79	-0.25377253
152	0xbdea216a	-0.114321545
153	0xbd83ca6d	-0.06435094
154	0x3ca82220	0.020524085
155	0xbcb88be8	-0.02252765
156	0xbd97d720	-0.07414079
157	0xbe090470	-0.13380599
158	0xbe44ffe6	-0.19238243
159	0x3dffc08d	0.12487898
160	0x3e329ace	0.17441866
161	0xbd2652db	-0.04060636
162	0x3e344cd6	0.17607436
163	0x3ed39731	0.41326287
164	0x3e3bf539	0.18355264
165	0x3dcb60d3	0.09930577
166	0xbdaf4d34	-0.08559647
167	0xbe2ebd6b	-0.17064445
168	0xbe27bf1c	-0.16381496
169	0xbdd03d4a	-0.1016794
170	0xbe5c490a	-0.21512237
171	0x3e403730	0.18771052
172	0x3e30e0a9	0.17273201
173	0xbdd07ddc	-0.10180256
174	0xbe38ccf6	-0.18046936
175	0xbe90b94f	-0.2826638
176	0x3dc12cee	0.09432398
177	0xbdecf6bf	-0.115705006
178	0x3d658ae8	0.056040674
179	0x3e3c9635	0.18416674
180	0x3d9ea2bc	0.07745883
181	0xbcb1fb47	-0.021726264
182	0x3e234a37	0.1594628
183	0x3db7f54d	0.08982334
184	0x3dde3dae	0.10851608
185	0x3da31c4e	0.07964383
186	0xbe630dcd	-0.22173233
187	0xbc95caa7	-0.018285109
188	0x3e13d8af	0.14438127
189	0xbd8b11c5	-0.06790499
190	0xbe6854a3	-0.22688536
191	0x3e25551d	0.1614575
192	0xbe30ab89	-0.17252935
193	0x3cfe7c2e	0.031065073
194	0x3ca6d908	0.02036716
195	0xbe036d75	-0.12834723
196	0x3e32bfa0	0.17455912
197	0x3de9f211	0.11423124
198	0xbe89d3c2	-0.2691937
199	0x3e543f60	0.207273
200	0xbd6e6f8c	-0.05821185
201	0xbe02cb00	-0.12772751
202	0x3de0ee11	0.109829076
203	0xbcfb1d1f	-0.030653534
204	0xbc8c0de6	-0.017096471
205	0x3db7326f	0.08945166
206	0xbcad08a8	-0.021122292
207	0xbe36860a	-0.1782457
208	0xbe011987	-0.12607394
209	0x3df4b88e	0.119492635
210	0xbde37a4c	-0.11107311
211	0xbda7481e	-0.08168052
212	0x3ca698fa	0.020336617
213	0xbca7684c	-0.020435475
214	0x3cdf7050	0.027275234
215	0x3e56115a	0.20905057
216	0x3cd8cfa7	0.026466204
217	0xbd0ba461	-0.03409231
218	0x3e67c6bc	0.22634405
219	0x3e2fc91a	0.17166558
220	0xbd5ff9da	-0.054681636
221	0x3d9e8385	0.07739929
222	0x3e969292	0.294087
223	0x3e50d286	0.20392808
224	0x3eab9b37	0.33516857
225	0xbc1ba0cc	-0.009498786
226	0x3bbcd385	0.00576252
227	0xbe0d251b	-0.13783686
228	0x3d991223	0.074741624
229	0x3e9f5825	0.31121936
230	0x3d287881	0.041130546
231	0xbe61eea8	-0.22063696
232	0x3dc3287f	0.095292084
233	0x3e539e3c	0.2066583
234	0x3e5edfc2	0.21765044
235	0xbd4c21d0	-0.049836934
236	0xbe40f8c0	-0.1884489
237	0x3e65888c	0.2241537
238	0xbd262b3c	-0.040568575
239	0x3de82996	0.11336057
240	0xbda06b70	-0.07832992
241	0x3de10e8f	0.10989105
242	0xbddafc25	-0.10692624
243	0x3b4dcc6c	0.0031402363
244	0x3e3b1d34	0.18272859
245	0x3e0284f4	0.1274603
246	0x3e69a901	0.22818376
247	0xbe5b4f2f	-0.21416925
248	0xbcafe66f	-0.021472184
249	0x3e24ecc1	0.1610594
250	0x3d6680b2	0.056275077
251	0x3dd90e74	0.1059846
252	0x3c8ee811	0.017444642
253	0x3e848a06	0.25886554
254	0xbcc0f123	-0.023552483
255	0xbd863e11	-0.06554807

model.GNN.layers.0.bias f4 [256]
0	0xbd8ff3f6	-0.07028954
1	0xbdc5ba51	-0.09654678
2	0xbd593c90	-0.053036273
3	0xbdc20d83	-0.094752334
4	0xbd681f1a	-0.056670286
5	0xbe8c96ee	-0.274589
6	0xbdbf0097	-0.093262844
7	0xbe5ae35a	-0.2137579
8	0xbdba9cc1	-0.0911193
9	0xbcc46bdf	-0.023977218
10	0xbd978f3a	-0.07400365
11	0x3c823298	0.015893266
12	0xbd92c82c	-0.07167086
13	0xbcaafe85	-0.020873317
14	0xbb2afb09	-0.002608957
15	0x3da2704e	0.07931577
16	0xbd8e37c4	-0.0694423
17	0xbdaa3d21	-0.08312441
18	0xbe303fb1	-0.17211796
19	0x3cdc2c10	0.02687648
20	0xbe2f63c3	-0.171279
21	0x3d205316	0.039141737
22	0xbd4d8370	-0.050174177
23	0xbdb74703	-0.08949091
24	0xbdc681dd	-0.09692738
25	0xbda0c098	-0.07849234
26	0xbe00c603	-0.12575535
27	0xbd82dd59	-0.06389875
28	0xbd24d0fc	-0.040238366
29	0x3c765a4a	0.015036175
30	0xbd9bfcbb	-0.07616564
31	0xbbb1e088	-0.0054283775
32	0xbde0e6cb	-0.1098152
33	0xbde13e9a	-0.109982684
34	0xbdc38c54	-0.0954825
35	0xbd4f1899	-0.050560568
36	0xbbb90425	-0.005646246
37	0xbdf7bc6b	-0.12096485
38	0xbbe003d7	-0.0068363952
39	0xbd897ec5	-0.067136325
40	0xbdb72c15	-0.08943955
41	0x3d657c93	0.056027006
42	0xbd33ed7a	-0.043927647
43	0xbd6f1e86	-0.05837872
44	0xbca34ba2	-0.019933525
45	0xbda5dcaa	-0.08098729
46	0x00000000	0.0
47	0xbdd0fdaf	-0.10204636
48	0xbd3f0d7b	-0.046643715
49	0x3cf0d84d	0.029400015
50	0xbe59d2c5	-0.21271808
51	0xbd3dceb1	-0.046339694
52	0xbd86c333	-0.065802
53	0x3c00810f	0.00784327
54	0x00000000	0.0
55	0xbe2b6c6b	-0.16740577
56	0xbdbccd69	-0.092188664
57	0xbdd11b55	-0.10210291
58	0x3d92d1ce	0.07168923
59	0x3d892289	0.0669604
60	0xbd81ff24	-0.06347492
61	0x3cb8c892	0.022556577
62	0xbb48b5b1	-0.0030625875
63	0xbddfa5b8	-0.1092028
64	0xbe5e06d2	-0.21682289
65	0xbd357157	-0.044297542
66	0xba781990	-0.00094642583
67	0xbcfb7496	-0.030695241
68	0xbdbb8cef	-0.0915774
69	0x3d7f8e68	0.06239167
70	0xbd19c5ac	-0.03754203
71	0xbd34a346	-0.044101022
72	0x3d283ce8	0.04107371
73	0x3d157c17	0.036495294
74	0xbd58967b	-0.052877884
75	0xbc928c49	-0.017889159
76	0xbd88a2bf	-0.06671666
77	0xbd16404d	-0.036682416
78	0xbd7a1f95	-0.061065275
79	0x3d9bd20b	0.07608422
80	0xbe362209	-0.17786421
81	0xbd59c03f	-0.053161856
82	0xbd6ab5e1	-0.05730236
83	0xbd7afde1	-0.061277274
84	0xbdcab36d	-0.09897504
85	0xbdbc0783	-0.0918112
86	0xbe1350e0	-0.1438632
87	0xbe19312f	-0.14960168
88	0x3b73f042	0.0037222062
89	0xbe4d74a6	-0.20064029
90	0xbd66b3bf	-0.056323763
91	0xbcf1febb	-0.02954041
92	0xbdd0a45d	-0.101876
93	0x3cf58add	0.029973442
94	0xbd086fd2	-0.033309765
95	0x3d7c00d5	0.06152423
96	0xbdc1ee10	-0.09469235
97	0xbd70ab70	-0.058757246
98	0xbcb41dd3	-0.021986878
99	0xbdae79fd	-0.08519361
100	0xbde4d6ae	-0.111737594
101	0xbdcb9f12	-0.0994245
102	0xbd77c3c8	-0.060489446
103	0xbda756a7	-0.081708245
104	0x3c692eb4	0.014232326
105	0x3c27da89	0.010244974
106	0xbd8b1a4b	-0.06792124
107	0xbb899733	-0.0041989326
108	0xbe22937d	-0.15876575
109	0xbd71a902	-0.05899907
110	0xbe58d949	-0.21176638
111	0xbd9df010	-0.07711804
112	0xbcc8471a	-0.024447966
113	0xbdba5d4f	-0.090998285
114	0xbd48e7a8	-0.04904905
115	0xbd80d1ed	-0.0629004
116	0xbd80a162	-0.06280781
117	0xbca9d718	-0.020732448
118	0xbd9f9ca9	-0.077935524
119	0xbd9978c6	-0.07493739
120	0xbd5715bf	-0.052510973
121	0xbe24725a	-0.16059247
122	0xbe4c580e	-0.19955465
123	0xbe4fdfc7	-0.20300208
124	0xbb059cb8	-0.00203876
125	0xbe119b84	-0.14219481
126	0xbe066aa3	-0.13126616
127	0xbdac8296	-0.08423345
128	0x3d1932e5	0.037402052
129	0xbd16c608	-0.03680995
130	0xbdc8d381	-0.09805966
131	0xbdcc1360	-0.09964633
132	0x3c19544e	0.009358479
133	0xbcdbda3e	-0.026837464
134	0xbe302a40	-0.17203617
135	0xbddfbf34	-0.10925141
136	0xbd8a16d5	-0.06742636
137	0xbe3cd367	-0.18440019
138	0xbdf591fe	-0.119907364
139	0xbd6612bb	-0.056170207
140	0xbd29b849	-0.041435514
141	0xbc9fc158	-0.019501373
142	0xbde871df	-0.11349844
143	0xbe561b24	-0.20908791
144	0xbc2814e3	-0.010258886
145	0x3c872409	0.016496675
146	0xbdda4c9d	-0.10659144
147	0xbdc88c03	-0.0979233
148	0xbd208d42	-0.039197214
149	0xbb2bbbfa	-0.0026204572
150	0x3cc13170	0.023583144
151	0xbd294ebc	-0.041334853
152	0xbdc800be	-0.097657666
153	0xbdcef791	-0.10105813
154	0xbd2b2559	-0.041783664
155	0xbdd5ddc1	-0.10442687
156	0xbe0b329c	-0.13593525
157	0xbdf23314	-0.11826149
158	0xbd995067	-0.07486039
159	0xbe064833	-0.1311348
160	0xbe32c01b	-0.17456095
161	0x3c9258bf	0.017864583
162	0xbdb9bf89	-0.090697356
163	0xbc136e72	-0.0089985
164	0xbde11579	-0.10990424
165	0xbce5b125	-0.02803857
166	0xbe11b8e9	-0.14230694
167	0xbd3e1fb8	-0.046416968
168	0xbd42fadd	-0.047602523
169	0xbd114648	-0.035467416
170	0xbdea5725	-0.11442403
171	0xbdf6db6b	-0.120535694
172	0xbcf1189a	-0.029430676
173	0x3d18254c	0.037144944
174	0x3c8fd395	0.017556945
175	0xbda8e12d	-0.08246074
176	0xbd6c0fe4	-0.057632342
177	0x3db5e8b9	0.08882279
178	0xbe08821b	-0.13330881
179	0xbd1d8ca4	-0.038464203
180	0xbd83a7c2	-0.06428482
181	0x3c8c9c25	0.0171643
182	0xbe13b061	-0.14422752
183	0x3cc40285	0.023926983
184	0x3b3fb86c	0.002925421
185	0x3abd4b72	0.001444204
186	0x3d34b742	0.04412008
187	0xbcae743c	-0.02129566
188	0x3d98c0f5	0.07458679
189	0xbd90294f	-0.07039129
190	0xbe3e531e	-0.18586394
191	0xbccfd450	-0.025369793
192	0xbda64c49	-0.08120019
193	0xbcc79a18	-0.02436547
194	0xbccbaff4	-0.024864174
195	0xbe3a0171	-0.18164612
196	0xbd1480ff	-0.036255833
197	0xbdc86c62	-0.097862974
198	0xbdd11387	-0.10208803
199	0xbd22c8f0	-0.03974241
200	0xbcaa51bc	-0.020790927
201	0xbcb7d7ff	-0.022441862
202	0xbdab826b	-0.08374485
203	0xbd80cbfc	-0.06288907
204	0xbdfc7340	-0.1232667
205	0xbdaa7500	-0.08323097
206	0xbc90e937	-0.01768933
207	0xbb666e56	-0.003516098
208	0x3c2fef13	0.010738152
209	0xbd496326	-0.04916682
210	0xbe209dc8	-0.15685189
211	0xbe255984	-0.16147429
212	0xbddfbd0d	-0.109247304
213	0xbdcf93c5	-0.10135607
214	0xbcd8e785	-0.026477585
215	0xbdafb857	-0.08580082
216	0xbe00bcdd	-0.12572046
217	0x3cacd60e	0.021098163
218	0xbdd41d90	-0.10357201
219	0xbd3283e9	-0.04358283
220	0xbd2e125c	-0.042497978
221	0xbd946a3c	-0.07246825
222	0x3c12429c	0.008927014
223	0xbdd78da4	-0.10525063
224	0xbc9483d6	-0.01812927
225	0x3c75e592	0.015008347
226	0xbcd1d4fd	-0.025614256
227	0x3e378ae5	0.17924078
228	0xbe11f8e3	-0.14255099
229	0xbd3d703f	-0.046249624
230	0x39f1e748	0.0004613942
231	0xbd93deaf	-0.07220208
232	0xbe0aa2ea	-0.1353871
233	0xbe0eb5bd	-0.13936515
234	0xbdd53004	-0.10409549
235	0xbd5cfd0b	-0.053952258
236	0xbd92e5d2	-0.07172741
237	0xbd052d8b	-0.032514136
238	0x3c2fdfd3	0.010734516
239	0xbdff02d5	-0.12451712
240	0xbe0b9185	-0.1362973
241	0xbce29bbb	-0.027662149
242	0xbe06ab44	-0.1315127
243	0xbcc7b2f5	-0.024377326
244	0xbdd10a0f	-0.10206997
245	0xbe0f9a27	-0.14023648
246	0x3ce8a2d7	0.02839796
247	0xbe2c9371	-0.1685312
248	0xbd6d4a43	-0.05793215
249	0x3d02a1a2	0.031892426
250	0xbdcbeb87	-0.09957033
251	0xbdaa6113	-0.08319297
252	0x3d3ef04a	0.046615876
253	0xbcd9bff4	-0.026580788
254	0x3d0c5ab9	0.034266207
255	0xbd6dd571	-0.05806488

model.GNN.layers.0.lin_src.weight f4 [256, 7]
0	0xbcb06ad3	-0.021535313
1	0xbca4f02e	-0.020134058
2	0xbd13bb88	-0.036067516
3	0xbc7fdf18	-0.015617155
4	0x3d26ddf7	0.040739026
5	0xbd216b83	-0.03940917
6	0x3c3c66b6	0.011499098
7	0xbd5c48eb	-0.053780477
8	0xbd12db80	-0.035853863
9	0xbc8cd49e	-0.017191228
10	0xbe44e76a	-0.19228902
11	0xbebba3bd	-0.3664836
12	0xbe523a78	-0.20530117
13	0xbe1a7c92	-0.15086582
14	0x3a8a3698	0.0010544835
15	0x3c88e86a	0.016712386
16	0xbcdfb517	-0.02730803
17	0xbf0e0597	-0.5547728
18	0xbef54eba	-0.47911626
19	0xbe8b2364	-0.27175438
20	0xbe684086	-0.22680864
21	0xbd47a458	-0.048740715
22	0xbe0267a1	-0.12734844
23	0xba83c9ec	-0.0010054684
24	0x3e60e33e	0.21961686
25	0x3dfdc1e6	0.12390499
26	0x3e0376f2	0.12838343
27	0x3dc0e67a	0.0941896
28	0xbdce415e	-0.100710616
29	0xbdb7e562	-0.08979298
30	0xbe07415e	-0.1320853
31	0xbefd6017	-0.49487373
32	0xbf00795c	-0.5018518
33	0xbe9d2a63	-0.306964
34	0xbecc5876	-0.3991124
35	0xbda7b0d6	-0.08188026
36	0xbdb20531	-0.086923964
37	0x3dd7f947	0.10545593
38	0x3e8dda61	0.27705672
39	0x3e9088ac	0.28229272
40	0x3de60776	0.11231892
41	0x3e8ff857	0.28119156
42	0xbc84fde2	-0.016234342
43	0xbc8e4a7a	-0.017369498
44	0xbcb5dca7	-0.022199942
45	0xbe6112f3	-0.21979885
46	0x3c9198c5	0.017773042
47	0xbd24de03	-0.04025079
48	0x3d1d160f	0.038351115
49	0x3cf7ce08	0.03024961
50	0x3cbf3350	0.023339897
51	0x3d243a90	0.040094912
52	0x3da52a22	0.08064677
53	0x3e81e816	0.2537238
54	0x3df72c67	0.12069016
55	0x3e2059cf	0.1565926
56	0xbde07fed	-0.109619
57	0xbdd47266	-0.10373382
58	0xbd8ce95f	-0.068804495
59	0xbe43969d	-0.19100423
60	0xbf093e7c	-0.5361097
61	0xbebec2cc	-0.37257993
62	0xbe57c252	-0.21070221
63	0x3e07acd9	0.1324953
64	0xbe5db32b	-0.21650378
65	0x3d86d2e7	0.06583195
66	0xbe099fbb	-0.13439839
67	0x3e30ee57	0.1727842
68	0xbe48865c	-0.19582504
69	0xbca7fbb6	-0.020505767
70	0xbcd1ead8	-0.025624678
71	0xbc83dd81	-0.016096832
72	0xbca95b69	-0.02067347
73	0xbdaf0ff6	-0.08547966
74	0xbe46e702	-0.1942406
75	0xbe125775	-0.14291175
76	0x3d0b7361	0.03404558
77	0xbd7cf7c0	-0.06175971
78	0x3de6a58b	0.112620436
79	0xbe541caa	-0.2071406
80	0x3e806946	0.25080317
81	0xbdf5ce41	-0.120022304
82	0xbd80bfbf	-0.06286573
83	0xbdf8730b	-0.12131318
84	0x3dd72c50	0.10506499
85	0xbe1b2358	-0.15150201
86	0x3d9f9abe	0.077931866
87	0xbc0c8714	-0.008577127
88	0x3e23daff	0.16001509
89	0x3e8afdb1	0.27146676
90	0x3d859827	0.065231614
91	0x3debb10e	0.1150838
92	0xbe97a1e9	-0.29615715
93	0x3e2c3462	0.16816857
94	0xbd0caeac	-0.034346268
95	0x3ea990d2	0.33118302
96	0xbdb7ca1b	-0.089740954
97	0x3e170cfe	0.1475105
98	0xbca4c0b8	-0.020111427
99	0xbdca12b3	-0.09866848
100	0x3e4d0b9e	0.20023963
101	0xbe34db5d	-0.17661805
102	0x3df8c0f5	0.12146179
103	0xbe63a59f	-0.22231148
104	0x3e2bb61c	0.16768688
105	0xbe13042a	-0.14357057
106	0x3e9d3a18	0.30708385
107	0xbf028b6f	-0.5099401
108	0xbe13f9ca	-0.14450756
109	0xbdc8b3cc	-0.097999185
110	0xbb6afa6e	-0.0035854834
111	0xbdb75f56	-0.08953731
112	0xbd4028ae	-0.046913795
113	0xbd07ec57	-0.033184376
114	0x3d3b91a4	0.04579319
115	0xbf19154a	-0.5979811
116	0xbea7e47d	-0.3279151
117	0xbea1700d	-0.315308
118	0xbe683fb3	-0.2268055
119	0x3bf3783d	0.007430105
120	0x3b6d9c98	0.0036256667
121	0xba94d7c3	-0.0011355806
122	0x3cfc048c	0.030763887
123	0xbe819c41	-0.25314525
124	0x3d02b743	0.031913053
125	0xbd11ee3c	-0.03562759
126	0xbd3fd6c0	-0.04683566
127	0xbd8c3c91	-0.068474896
128	0x3dc8c261	0.098027
129	0x3d608a99	0.054819677
130	0x3e873671	0.26408723
131	0x3d23f95b	0.040032726
132	0x3d840c65	0.064476766
133	0xbd319ab5	-0.04336043
134	0xbd7da9be	-0.061929457
135	0xbdee47e7	-0.11634808
136	0x3e5785ef	0.21047185
137	0xbd36e055	-0.044647533
138	0x3e210c27	0.15727292
139	0xbe4a7789	-0.19772162
140	0xbcd7f9f1	-0.026364299
141	0xbd50cb70	-0.050975263
142	0x3c6bd2ae	0.014393492
143	0x3e7d7033	0.24749832
144	0x3e1815ed	0.14852114
145	0x3e000518	0.12501943
146	0x3e60b94e	0.21945688
147	0xbe26212f	-0.16223596
148	0x3e53cd64	0.20683819
149	0x3e9a7d05	0.30173507
150	0x3e038d1e	0.128468
151	0x3e365fbd	0.17809959
152	0x3c6c08c7	0.01440639
153	0x3e844ed0	0.2584138
154	0xbd52db98	-0.051478952
155	0xbd23b1b1	-0.03996438
156	0x3ccd2b47	0.02504505
157	0xbe808081	-0.2509804
158	0xbe4c1a85	-0.19931991
159	0xbea23ae1	-0.31685546
160	0xbdd093e3	-0.10184457
161	0x3c397c02	0.01132107
162	0x3c4017bd	0.01172441
163	0x3be4d1d9	0.0069830236
164	0x3cba914d	0.022774363
165	0x3e0f1064	0.13971096
166	0x3c06193d	0.008184728
167	0x3e27bf4e	0.1638157
168	0xbac946d5	-0.0015356193
169	0xbbc624a2	-0.0060468474
170	0xbdccb486	-0.099953696
171	0x3d032602	0.03201867
172	0x3e4c5c35	0.19957049
173	0x3d61d430	0.055134
174	0xbd8c1248	-0.06839424
175	0xbd314bdd	-0.04328524
176	0xbd475167	-0.048661616
177	0xbd36e5e4	-0.044652835
178	0xbcc23d71	-0.023710938
179	0x3e1704d4	0.14747936
180	0xbba806ed	-0.0051277787
181	0x3e01f84c	0.12692374
182	0xbe2d4af8	-0.1692313
183	0xbe37b944	-0.17941767
184	0x3d22e333	0.039767455
185	0x3dba6f1a	0.09103222
186	0x3e757f30	0.239743
187	0x3d92b87d	0.071640946
188	0x3e6cd3d2	0.23127678
189	0xbd0f7568	-0.035024077
190	0xbcd42cad	-0.02590021
191	0xbca116aa	-0.019664127
192	0xbe41c9f5	-0.18924697
193	0xbeadd886	-0.33954257
194	0xbdd837b8	-0.105575025
195	0xbe035577	-0.12825571
196	0xbe0c0b1e	-0.13676116
197	0x3e77afe8	0.24188197
198	0xbf033c06	-0.51263463
199	0x3ac5e45d	0.0015097965
200	0xbdee403e	-0.11633347
201	0x3e880df7	0.26573154
202	0x3d43efc7	0.04783609
203	0xbdd6d826	-0.10490446
204	0xbdc3e616	-0.0956537
205	0xbc2afbf3	-0.010436046
206	0xbea355ad	-0.31901303
207	0x3f7a2c88	0.977242
208	0xbeb6e4b9	-0.35721377
209	0x3f458f82	0.771721
210	0xbcd3c135	-0.025848964
211	0xbccd5388	-0.025064245
212	0xbcbf7daa	-0.023375351
213	0xbd91c713	-0.071180485
214	0x3e0be46a	0.13661352
215	0xbd0f7a96	-0.035029016
216	0xbc586d4b	-0.013209651
217	0xbe0e94a1	-0.13923885
218	0x3e854434	0.26028597
219	0xbeac56de	-0.33660024
220	0x3d296f8e	0.041366152
221	0xbf013c2f	-0.5048246
222	0xbee377ce	-0.4442734
223	0xbe4d0eab	-0.20025127
224	0xbc9ea671	-0.019366475
225	0xbc8a5091	-0.01688412
226	0xbd8681d3	-0.06567731
227	0xbe831604	-0.25602734
228	0xbedd7997	-0.43256828
229	0xbdc656d2	-0.096845284
230	0xbee6a84a	-0.4505027
231	0xbca56027	-0.02018745
232	0xbc44a717	-0.012002728
233	0x3c8c7bb6	0.017148834
234	0xbeffcac3	-0.49959382
235	0xbf2ee87d	-0.683235
236	0xbe11874a	-0.14211765
237	0xbf14fa8f	-0.5819482
238	0xbcf6ce06	-0.030127537
239	0xbce91983	-0.028454548
240	0xbb31ed33	-0.0027149438
241	0xbd1b96ad	-0.037985492
242	0xbe1b5bb4	-0.151717
243	0xbcb2293b	-0.021748176
244	0xbdb328e9	-0.08748037
245	0x3d83327b	0.06406113
246	0xbd60a0d0	-0.054840863
247	0xbe3b294e	-0.18277475
248	0xbe0d1b13	-0.13779859
249	0x3ca7c039	0.020477401
250	0xbead94f1	-0.33902696
251	0xbdebb099	-0.11508293
252	0xbe00ff28	-0.12597334
253	0xbe10daa3	-0.14145903
254	0xbd6b5440	-0.057453394
255	0x3e05cc78	0.1306628

model.GNN.layers.0.lin_dst.weight f4 [256, 7]
0	0xbcb06ad3	-0.021535313
1	0xbca4f02e	-0.020134058
2	0xbd13bb88	-0.036067516
3	0xbc7fdf18	-0.015617155
4	0x3d26ddf7	0.040739026
5	0xbd216b83	-0.03940917
6	0x3c3c66b6	0.011499098
7	0xbd5c48eb	-0.053780477
8	0xbd12db80	-0.035853863
9	0xbc8cd49e	-0.017191228
10	0xbe44e76a	-0.19228902
11	0xbebba3bd	-0.3664836
12	0xbe523a78	-0.20530117
13	0xbe1a7c92	-0.15086582
14	0x3a8a3698	0.0010544835
15	0x3c88e86a	0.016712386
16	0xbcdfb517	-0.02730803
17	0xbf0e0597	-0.5547728
18	0xbef54eba	-0.47911626
19	0xbe8b2364	-0.27175438
20	0xbe684086	-0.22680864
21	0xbd47a458	-0.048740715
22	0xbe0267a1	-0.12734844
23	0xba83c9ec	-0.0010054684
24	0x3e60e33e	0.21961686
25	0x3dfdc1e6	0.12390499
26	0x3e0376f2	0.12838343
27	0x3dc0e67a	0.0941896
28	0xbdce415e	-0.100710616
29	0xbdb7e562	-0.08979298
30	0xbe07415e	-0.1320853
31	0xbefd6017	-0.49487373
32	0xbf00795c	-0.5018518
33	0xbe9d2a63	-0.306964
34	0xbecc5876	-0.3991124
35	0xbda7b0d6	-0.08188026
36	0xbdb20531	-0.086923964
37	0x3dd7f947	0.10545593
38	0x3e8dda61	0.27705672
39	0x3e9088ac	0.28229272
40	0x3de60776	0.11231892
41	0x3e8ff857	0.28119156
42	0xbc84fde2	-0.016234342
43	0xbc8e4a7a	-0.017369498
44	0xbcb5dca7	-0.022199942
45	0xbe6112f3	-0.21979885
46	0x3c9198c5	0.017773042
47	0xbd24de03	-0.04025079
48	0x3d1d160f	0.038351115
49	0x3cf7ce08	0.03024961
50	0x3cbf3350	0.023339897
51	0x3d243a90	0.040094912
52	0x3da52a22	0.08064677
53	0x3e81e816	0.2537238
54	0x3df72c67	0.12069016
55	0x3e2059cf	0.1565926
56	0xbde07fed	-0.109619
57	0xbdd47266	-0.10373382
58	0xbd8ce95f	-0.068804495
59	0xbe43969d	-0.19100423
60	0xbf093e7c	-0.5361097
61	0xbebec2cc	-0.37257993
62	0xbe57c252	-0.21070221
63	0x3e07acd9	0.1324953
64	0xbe5db32b	-0.21650378
65	0x3d86d2e7	0.06583195
66	0xbe099fbb	-0.13439839
67	0x3e30ee57	0.1727842
68	0xbe48865c	-0.19582504
69	0xbca7fbb6	-0.020505767
70	0xbcd1ead8	-0.025624678
71	0xbc83dd81	-0.016096832
72	0xbca95b69	-0.02067347
73	0xbdaf0ff6	-0.08547966
74	0xbe46e702	-0.1942406
75	0xbe125775	-0.14291175
76	0x3d0b7361	0.03404558
77	0xbd7cf7c0	-0.06175971
78	0x3de6a58b	0.112620436
79	0xbe541caa	-0.2071406
80	0x3e806946	0.25080317
81	0xbdf5ce41	-0.120022304
82	0xbd80bfbf	-0.06286573
83	0xbdf8730b	-0.12131318
84	0x3dd72c50	0.10506499
85	0xbe1b2358	-0.15150201
86	0x3d9f9abe	0.077931866
87	0xbc0c8714	-0.008577127
88	0x3e23daff	0.16001509
89	0x3e8afdb1	0.27146676
90	0x3d859827	0.065231614
91	0x3debb10e	0.1150838
92	0xbe97a1e9	-0.29615715
93	0x3e2c3462	0.16816857
94	0xbd0caeac	-0.034346268
95	0x3ea990d2	0.33118302
96	0xbdb7ca1b	-0.089740954
97	0x3e170cfe	0.1475105
98	0xbca4c0b8	-0.020111427
99	0xbdca12b3	-0.09866848
100	0x3e4d0b9e	0.20023963
101	0xbe34db5d	-0.17661805
102	0x3df8c0f5	0.12146179
103	0xbe63a59f	-0.22231148
104	0x3e2bb61c	0.16768688
105	0xbe13042a	-0.14357057
106	0x3e9d3a18	0.30708385
107	0xbf028b6f	-0.5099401
108	0xbe13f9ca	-0.14450756
109	0xbdc8b3cc	-0.097999185
110	0xbb6afa6e	-0.0035854834
111	0xbdb75f56	-0.08953731
112	0xbd4028ae	-0.046913795
113	0xbd07ec57	-0.033184376
114	0x3d3b91a4	0.04579319
115	0xbf19154a	-0.5979811
116	0xbea7e47d	-0.3279151
117	0xbea1700d	-0.315308
118	0xbe683fb3	-0.2268055
119	0x3bf3783d	0.007430105
120	0x3b6d9c98	0.0036256667
121	0xba94d7c3	-0.0011355806
122	0x3cfc048c	0.030763887
123	0xbe819c41	-0.25314525
124	0x3d02b743	0.031913053
125	0xbd11ee3c	-0.03562759
126	0xbd3fd6c0	-0.04683566
127	0xbd8c3c91	-0.068474896
128	0x3dc8c261	0.098027
129	0x3d608a99	0.054819677
130	0x3e873671	0.26408723
131	0x3d23f95b	0.040032726
132	0x3d840c65	0.064476766
133	0xbd319ab5	-0.04336043
134	0xbd7da9be	-0.061929457
135	0xbdee47e7	-0.11634808
136	0x3e5785ef	0.21047185
137	0xbd36e055	-0.044647533
138	0x3e210c27	0.15727292
139	0xbe4a7789	-0.19772162
140	0xbcd7f9f1	-0.026364299
141	0xbd50cb70	-0.050975263
142	0x3c6bd2ae	0.014393492
143	0x3e7d7033	0.24749832
144	0x3e1815ed	0.14852114
145	0x3e000518	0.12501943
146	0x3e60b94e	0.21945688
147	0xbe26212f	-0.16223596
148	0x3e53cd64	0.20683819
149	0x3e9a7d05	0.30173507
150	0x3e038d1e	0.128468
151	0x3e365fbd	0.17809959
152	0x3c6c08c7	0.01440639
153	0x3e844ed0	0.2584138
154	0xbd52db98	-0.051478952
155	0xbd23b1b1	-0.03996438
156	0x3ccd2b47	0.02504505
157	0xbe808081	-0.2509804
158	0xbe4c1a85	-0.19931991
159	0xbea23ae1	-0.31685546
160	0xbdd093e3	-0.10184457
161	0x3c397c02	0.01132107
162	0x3c4017bd	0.01172441
163	0x3be4d1d9	0.0069830236
164	0x3cba914d	0.022774363
165	0x3e0f1064	0.13971096
166	0x3c06193d	0.008184728
167	0x3e27bf4e	0.1638157
168	0xbac946d5	-0.0015356193
169	0xbbc624a2	-0.0060468474
170	0xbdccb486	-0.099953696
171	0x3d032602	0.03201867
172	0x3e4c5c35	0.19957049
173	0x3d61d430	0.055134
174	0xbd8c1248	-0.06839424
175	0xbd314bdd	-0.04328524
176	0xbd475167	-0.048661616
177	0xbd36e5e4	-0.044652835
178	0xbcc23d71	-0.023710938
179	0x3e1704d4	0.14747936
180	0xbba806ed	-0.0051277787
181	0x3e01f84c	0.12692374
182	0xbe2d4af8	-0.1692313
183	0xbe37b944	-0.17941767
184	0x3d22e333	0.039767455
185	0x3dba6f1a	0.09103222
186	0x3e757f30	0.239743
187	0x3d92b87d	0.071640946
188	0x3e6cd3d2	0.23127678
189	0xbd0f7568	-0.035024077
190	0xbcd42cad	-0.02590021
191	0xbca116aa	-0.019664127
192	0xbe41c9f5	-0.18924697
193	0xbeadd886	-0.33954257
194	0xbdd837b8	-0.105575025
195	0xbe035577	-0.12825571
196	0xbe0c0b1e	-0.13676116
197	0x3e77afe8	0.24188197
198	0xbf033c06	-0.51263463
199	0x3ac5e45d	0.0015097965
200	0xbdee403e	-0.11633347
201	0x3e880df7	0.26573154
202	0x3d43efc7	0.04783609
203	0xbdd6d826	-0.10490446
204	0xbdc3e616	-0.0956537
205	0xbc2afbf3	-0.010436046
206	0xbea355ad	-0.31901303
207	0x3f7a2c88	0.977242
208	0xbeb6e4b9	-0.35721377
209	0x3f458f82	0.771721
210	0xbcd3c135	-0.025848964
211	0xbccd5388	-0.025064245
212	0xbcbf7daa	-0.023375351
213	0xbd91c713	-0.071180485
214	0x3e0be46a	0.13661352
215	0xbd0f7a96	-0.035029016
216	0xbc586d4b	-0.013209651
217	0xbe0e94a1	-0.13923885
218	0x3e854434	0.26028597
219	0xbeac56de	-0.33660024
220	0x3d296f8e	0.041366152
221	0xbf013c2f	-0.5048246
222	0xbee377ce	-0.4442734
223	0xbe4d0eab	-0.20025127
224	0xbc9ea671	-0.019366475
225	0xbc8a5091	-0.01688412
226	0xbd8681d3	-0.06567731
227	0xbe831604	-0.25602734
228	0xbedd7997	-0.43256828
229	0xbdc656d2	-0.096845284
230	0xbee6a84a	-0.4505027
231	0xbca56027	-0.02018745
232	0xbc44a717	-0.012002728
233	0x3c8c7bb6	0.017148834
234	0xbeffcac3	-0.49959382
235	0xbf2ee87d	-0.683235
236	0xbe11874a	-0.14211765
237	0xbf14fa8f	-0.5819482
238	0xbcf6ce06	-0.030127537
239	0xbce91983	-0.028454548
240	0xbb31ed33	-0.0027149438
241	0xbd1b96ad	-0.037985492
242	0xbe1b5bb4	-0.151717
243	0xbcb2293b	-0.021748176
244	0xbdb328e9	-0.08748037
245	0x3d83327b	0.06406113
246	0xbd60a0d0	-0.054840863
247	0xbe3b294e	-0.18277475
248	0xbe0d1b13	-0.13779859
249	0x3ca7c039	0.020477401
250	0xbead94f1	-0.33902696
251	0xbdebb099	-0.11508293
252	0xbe00ff28	-0.12597334
253	0xbe10daa3	-0.14145903
254	0xbd6b5440	-0.057453394
255	0x3e05cc78	0.1306628

model.GNN.layers.3.att_src f4 [1, 1, 256]
0	0x3e8bfa4e	0.27339405
1	0x3e03a937	0.12857519
2	0x3e99041a	0.29885942
3	0x3e2b2978	0.16715038
4	0x3ec636c2	0.38713652
5	0x3ec49622	0.38395792
6	0xbe76709b	-0.24066393
7	0xbea42367	-0.3205826
8	0xbe858a4d	-0.26082078
9	0xbe031a75	-0.12803061
10	0xbe66390d	-0.224827
11	0xbde01483	-0.10941412
12	0x3eaf6530	0.34256887
13	0xbe9d4aa0	-0.30720997
14	0xbec15036	-0.3775651
15	0x3ecd0b57	0.40047714
16	0x3de4a096	0.11163442
17	0x3ecf347c	0.4046973
18	0xbf1a7649	-0.6033674
19	0x3e99aae9	0.30013207
20	0x3d7abd42	0.061215647
21	0x3e03f59c	0.12886661
22	0xbe7b2ed8	-0.24529588
23	0xbe7eebd5	-0.2489465
24	0x3de9da4e	0.114185914
25	0xbee58fbc	-0.44836223
26	0xbe9d7301	-0.30751804
27	0x3de2b5b5	0.11069814
28	0xbf085332	-0.53251946
29	0xbef0fae9	-0.4706643
30	0x3e96c40f	0.29446456
31	0xbebac04f	-0.36474845
32	0xbc93956c	-0.018015586
33	0x3e30492e	0.17215416
34	0xbe953bf7	-0.29147312
35	0x3e836479	0.25662592
36	0x3e89cd7c	0.26914585
37	0x3e529f10	0.2056849
38	0xbda2878c	-0.0793601
39	0x3ec18384	0.3779565
40	0xbe173eb3	-0.14770012
41	0xbdd79cd4	-0.105279595
42	0xbed241f1	-0.41065934
43	0x3d6cedde	0.057844035
44	0xbe69d453	-0.22834902
45	0xbf040101	-0.5156403
46	0x3e1e9fe1	0.15490676
47	0xbf0c2571	-0.5474463
48	0xbdde36df	-0.108503096
49	0x3ea3b580	0.3197441
50	0x3db22209	0.08697898
51	0x3e94c613	0.2905737
52	0xba9dfcdc	-0.0012053507
53	0x3ea6fdea	0.32615596
54	0xbdda45be	-0.106578335
55	0xbd4d612f	-0.05014151
56	0x3e7b32e0	0.24531126
57	0xbe287943	-0.16452508
58	0xbee8b1cd	-0.4544815
59	0x3dce0d32	0.100611106
60	0x3e94946b	0.29019484
61	0x3e2465aa	0.16054407
62	0xbe833af3	-0.25630912
63	0x3eb9ea19	0.36311415
64	0xbe227096	-0.1586326
65	0xbeaa2574	-0.332317
66	0x3eb2b184	0.3490106
67	0xbd11a88b	-0.035561126
68	0xbd3049e6	-0.043039225
69	0x3d192fe8	0.037399203
70	0x3e86d4c6	0.26334208
71	0x3d687ba3	0.056758534
72	0x3ea7e8ee	0.327949
73	0x3da815b4	0.082072645
74	0xbefde7a3	-0.49590787
75	0xbe96cdb2	-0.29453808
76	0x3d9f3dc8	0.07775456
77	0xbde7fc7b	-0.11327454
78	0x3e985bba	0.29757482
79	0x3cb84523	0.022493904
80	0x3e3d0096	0.18457255
81	0xbe4c040e	-0.19923422
82	0xbe09601e	-0.13415572
83	0x3ec6af4a	0.3880561
84	0xbe53620e	-0.20642874
85	0xbe607c36	-0.21922383
86	0xbf03f462	-0.51544774
87	0xbf00193d	-0.5003851
88	0x3ea3e194	0.3200804
89	0x3d08b6d5	0.033377487
90	0x3e0a25a1	0.13490917
91	0x3d437e25	0.047727723
92	0xbe892434	-0.26785433
93	0xbe7ecd4e	-0.24883005
94	0xbec4580d	-0.38348427
95	0x3e3fffca	0.1874992
96	0xbde13324	-0.109960824
97	0x3e69c28f	0.22828124
98	0xbe133954	-0.14377338
99	0xbea554d1	-0.32291272
100	0xbea22dfd	-0.3167571
101	0x3e58ff2e	0.21191093
102	0xbec9bb57	-0.3940074
103	0x3d9e75c9	0.077373095
104	0x3d57dc4c	0.052700326
105	0xbe385f73	-0.18005161
106	0x3dd0c8f6	0.1019458
107	0xbea6d41a	-0.32583696
108	0x3d6cd583	0.05782081
109	0xbd37e704	-0.044898048
110	0x3a8affc4	0.0010604789
111	0x3de4c603	0.1117058
112	0x3e9a65c6	0.30155772
113	0xbe3c8a1d	-0.18412061
114	0x3e02c5f8	0.12770832
115	0x3eb64ccc	0.35605466
116	0x3cd58045	0.02606214
117	0xbd947ba6	-0.072501466
118	0x3e807027	0.25085565
119	0xbebf5660	-0.37370586
120	0xbe64ce1a	-0.22344247
121	0xbef287be	-0.47369188
122	0xbdceb956	-0.10093944
123	0xbec689e4	-0.38777077
124	0x3ea58097	0.3232467
125	0xbe08cbc5	-0.13358982
126	0xbe07d060	-0.13263083
127	0xbdd694bf	-0.1047759
128	0xbeaa65ef	-0.33280894
129	0x3d9cf8d5	0.076646484
130	0x3e3058bf	0.17221354
131	0xbd87c99e	-0.06630252
132	0x3df21447	0.11820274
133	0xbe262ffc	-0.16229242
134	0xbebdaf1d	-0.37047663
135	0x3d174358	0.03692946
136	0x3e8b152e	0.27164596
137	0xbd80d614	-0.06290832
138	0xbea4948d	-0.32144585
139	0x3da4cf0e	0.08047305
140	0xbed5494e	-0.4165749
141	0xbe18ad57	-0.14909874
142	0x3e89ea88	0.26936746
143	0xbeff4b2f	-0.49862048
144	0x3d4f4c68	0.050609976
145	0xbde0e67e	-0.10981463
146	0x3dd5998d	0.10429678
147	0xbc910b32	-0.017705534
148	0x3d22ec82	0.039776333
149	0xbdbb2085	-0.09137062
150	0x3db8f638	0.090313375
151	0xbdbf6146	-0.09344725
152	0xbe11240c	-0.14173907
153	0xbe42c728	-0.19021285
154	0x3eaa926a	0.3331483
155	0x3ced5d16	0.02897505
156	0x3e03bf02	0.12865832
157	0xbc828b72	-0.015935633
158	0xbe4621d0	-0.19348836
159	0xbe0844d4	-0.13307506
160	0xbf0908b3	-0.535289
161	0xbeac1f18	-0.33617473
162	0xbcfbf17d	-0.030754799
163	0xbed59ebd	-0.4172267
164	0xbeb13d10	-0.346169
165	0xbe8a6c04	-0.27035534
166	0x3e8df6ed	0.27727452
167	0x3dd3c796	0.10340802
168	0xbde8e6fa	-0.1137218
169	0x3e81838c	0.25295675
170	0xbee66fbc	-0.45007122
171	0x3eb74ece	0.3580231
172	0xbe1d20c2	-0.15344527
173	0xbf0e2952	-0.555318
174	0xbec96aba	-0.39339238
175	0xbeaee98c	-0.34162557
176	0xbe825e7a	-0.25462705
177	0x3e963ffa	0.29345685
178	0xbe1a2684	-0.15053755
179	0xbdc5437c	-0.09632012
180	0xbda7ed46	-0.08199553
181	0x3ebb4973	0.36579475
182	0xbea3a5b4	-0.3196236
183	0xbe318536	-0.17335972
184	0x3e76b44f	0.2409222
185	0xbe3c31ea	-0.18378416
186	0x3ec3fc82	0.38278586
187	0x3e75d47e	0.2400684
188	0x3e2d6c36	0.1693581
189	0xbebb4036	-0.36572427
190	0x3d8fc0e4	0.07019213
191	0x3e884143	0.2661229
192	0xbdf6c122	-0.12048556
193	0xbe13d4e7	-0.14436685
194	0xbe8ebf3e	-0.2788028
195	0xbe86b107	-0.26306936
196	0xbea9cbc8	-0.33163285
197	0xbd2c9bfb	-0.042140942
198	0xbdcd798c	-0.10032949
199	0x3e8fb14b	0.2806495
200	0xbe7929a4	-0.24332291
201	0xbe68030d	-0.22657414
202	0xbe37a335	-0.17933352
203	0xbeaf2e57	-0.34215042
204	0x3e8aeb34	0.2713257
205	0xbe95754a	-0.29191047
206	0x3eb1be35	0.3471543
207	0xbe2c0853	-0.1680005
208	0xbec09620	-0.37614536
209	0x3e6c2317	0.2306026
210	0xbe0db0e0	-0.13837004
211	0x3e7c8b29	0.2466246
212	0x3ceafe97	0.028685851
213	0x3ea692ab	0.32533774
214	0xbe879df2	-0.2648769
215	0x3dea8add	0.11452267
216	0x3e5adebc	0.21374029
217	0x3e775d0e	0.24156591
218	0x3ec65368	0.3873551
219	0x3e10ab1b	0.14127772
220	0xbee02299	-0.43776396
221	0x3eac6b53	0.33675632
222	0xbca1a7dd	-0.019733364
223	0xbe08096e	-0.13284847
224	0xbea0dd22	-0.3141871
225	0x3e6ae1e9	0.2293774
226	0x3eadfad7	0.33980438
227	0xbe8a5970	-0.2702136
228	0x3dfb422b	0.1226848
229	0xbe57fe37	-0.21093069
230	0xbe87379c	-0.26409614
231	0xbed6fc2a	-0.4198926
232	0xbe692cde	-0.22771022
233	0xbe88e2d3	-0.26735553
234	0xbe3d9623	-0.18514304
235	0x3e234473	0.1594408
236	0xbeb0edc0	-0.3455639
237	0xb93ab1b0	-0.00017804536
238	0xbe727cdb	-0.23680441
239	0xbe7bfcf9	-0.2460822
240	0x3e177ef9	0.1479453
241	0x3c935816	0.017986339
242	0xbe071ccc	-0.13194579
243	0xbdec8a04	-0.11549762
244	0x3d84135e	0.064490065
245	0xbe091053	-0.13385133
246	0x3e84f926	0.25971335
247	0xbd8a070c	-0.06739625
248	0x3de474ec	0.111551136
249	0xbd484dbf	-0.04890227
250	0xbe059012	-0.1304324
251	0xbd0592b0	-0.032610595
252	0x3ebcedc5	0.36900154
253	0xbef1b29f	-0.4720659
254	0x3e3068ec	0.17227525
255	0x3c2f0b9c	0.01068392

model.GNN.layers.3.att_dst f4 [1, 1, 256]
0	0xbea348f2	-0.3189159
1	0xbdbbe2a7	-0.0917409
2	0xbe0cb98e	-0.13742658
3	0xbe32e087	-0.17468463
4	0xbe3f836a	-0.18702474
5	0xbe82d1b4	-0.25550616
6	0x3da37648	0.07981545
7	0xbd839350	-0.06424582
8	0x3e59b48d	0.21260281
9	0xbce1f880	-0.027584314
10	0xbd437e08	-0.047727615
11	0xbe5993bc	-0.21247762
12	0xbe376b9f	-0.17912148
13	0xbe406daa	-0.18791834
14	0x3db9788e	0.09056197
15	0xbe8b1126	-0.2716152
16	0xbda8c5af	-0.0824083
17	0xbe6aafdf	-0.22918652
18	0x3d8bdf25	0.06829671
19	0xbdcdc1f4	-0.10046759
20	0xbd3d0997	-0.046151724
21	0xbd4b8806	-0.04969027
22	0xbe5a9565	-0.21346052
23	0xbdab4236	-0.08362238
24	0xbdfa1461	-0.12210918
25	0x3e180566	0.1484581
26	0x3c6e01bb	0.01452678
27	0x3d4acfba	0.04951451
28	0x3d3845b7	0.04498836
29	0xbdd7284c	-0.10505733
30	0xbe717387	-0.23579226
31	0xbdd5b74d	-0.104353525
32	0xbe82d6be	-0.2555446
33	0xbe4afbf0	-0.19822669
34	0xbe346454	-0.17616397
35	0xbe92d797	-0.28680107
36	0xbdbb7ebd	-0.09155033
37	0xbe313f48	-0.17309296
38	0x3dd9f35e	0.10642122
39	0xbc07d531	-0.008290575
40	0xbe029904	-0.12753683
41	0xbe6d11f5	-0.23151381
42	0x3e26087c	0.16214174
43	0xbd4fd54f	-0.050740536
44	0xbe4d88cc	-0.20071715
45	0x3d876c9e	0.06612514
46	0x3d376d29	0.044781838
47	0x3ccc92cb	0.02497234
48	0xbe041f75	-0.12902625
49	0xbe6e4af8	-0.23270786
50	0xbe0d9e88	-0.13830006
51	0xbe6c77db	-0.23092596
52	0x3ddb0cf4	0.1069583
53	0xbe335e7d	-0.17516513
54	0xbe8a99a2	-0.27070338
55	0xbcca22e5	-0.024674842
56	0xbe70a1b5	-0.23499186
57	0xbe328fb9	-0.17437638
58	0xbd873146	-0.06601195
59	0xbd8d74ba	-0.069070294
60	0xbd8a8276	-0.06763165
61	0xbe1b0fad	-0.15142699
62	0xbd9aa3df	-0.07550787
63	0xbe904354	-0.28176367
64	0x3c43fbdd	0.011961904
65	0xbe579660	-0.21053457
66	0xbe951496	-0.29117268
67	0x3e55f471	0.20894028
68	0x3bd46aac	0.006482443
69	0xbe836f19	-0.25670698
70	0xbeb4ea3a	-0.3533495
71	0x3e5f7771	0.21822907
72	0xbe6c1407	-0.23054515
73	0x3de78173	0.11303987
74	0x3e08783c	0.13327116
75	0x3bc57c5e	0.0060267886
76	0x3dbb634d	0.091497995
77	0xbd3de5cc	-0.04636173
78	0xbd596226	-0.053072117
79	0xbe3eb90c	-0.18625277
80	0xbce6a372	-0.028154109
81	0xbe94f2b8	-0.2909143
82	0xbe13b671	-0.14425065
83	0xbc7640e2	-0.015030118
84	0xbd2e8594	-0.04260786
85	0xbda42c2a	-0.08016236
86	0x3d9b770b	0.07591065
87	0xbd00478a	-0.031318225
88	0xbe8728c5	-0.26398292
89	0xbe87fa8d	-0.26558343
90	0xbced577b	-0.028972378
91	0xbb24270a	-0.0025047683
92	0x3b3edcae	0.0029123235
93	0x3e4ec68e	0.2019293
94	0x3d6de56f	0.058080133
95	0xbe57176f	-0.21005033
96	0xbdadde3f	-0.08489656
97	0xbe8638d2	-0.26215225
98	0xbe7207e3	-0.23635821
99	0x3e4226da	0.18960133
100	0xbe494004	-0.19653326
101	0xbe0f1200	-0.1397171
102	0xbe035ae0	-0.12827635
103	0xbe63b71a	-0.22237816
104	0xbd48c6be	-0.04901766
105	0x3dbbde78	0.09173292
106	0xbe83497b	-0.25642
107	0xbd8ee936	-0.06978075
108	0xbccd0340	-0.025025964
109	0x3dc979f0	0.09837711
110	0x3cd705ef	0.026247947
111	0xbe4840d0	-0.19555974
112	0xbe5d769c	-0.21627277
113	0xbd34ca62	-0.04413832
114	0xbdd968cc	-0.106156915
115	0xbe9be411	-0.30447438
116	0xbe145c79	-0.144884
117	0x3d840324	0.064459115
118	0xbe8be731	-0.27324823
119	0x3e0276d2	0.12740639
120	0x3e53ddd4	0.2069009
121	0x3bd8221e	0.006595864
122	0xbce52c2d	-0.027975166
123	0xbb447282	-0.0029975479
124	0xbe8314bb	-0.25601754
125	0xbd00e8ed	-0.031472135
126	0xbe8ec034	-0.27881014
127	0xbd5b8d16	-0.053601347
128	0x3b96f41d	0.0046067373
129	0xbde9272e	-0.11384426
130	0xbe726c8b	-0.23674218
131	0xbea20d2b	-0.3165067
132	0xbec3239d	-0.38113108
133	0xbe4e234b	-0.2013065
134	0xbcfb0102	-0.030640129
135	0x3d179c88	0.037014514
136	0xbe98846c	-0.2978853
137	0x3c18f18c	0.009334933
138	0xbe37509c	-0.17901844
139	0xbe313a3f	-0.17307375
140	0x3d69d487	0.057087447
141	0x3e106f95	0.14105065
142	0xbe4eac6d	-0.20182963
143	0xbd494be2	-0.049144633
144	0xbd794f22	-0.060866483
145	0xbe72e92f	-0.23721765
146	0xbc8acc50	-0.016943127
147	0xbebdc948	-0.37067628
148	0xbe36430c	-0.17799014
149	0xbccd1bf5	-0.025037745
150	0x3d0f68ce	0.03501206
151	0xbe84c3ab	-0.25930533
152	0xbe8bf5ed	-0.27336064
153	0x3e3ff11b	0.18744318
154	0xbe2245f2	-0.15846995
155	0xbe8998c1	-0.26874354
156	0xbe21c144	-0.15796381
157	0xbe873506	-0.2640764
158	0xbe3f8fab	-0.18707149
159	0x3e51c042	0.20483497
160	0x3dbd0778	0.0922994
161	0x3dac100d	0.08401499
162	0xbde85378	-0.113440454
163	0x3e537210	0.2064898
164	0xbdfe2769	-0.12409861
165	0xbe408d9f	-0.18804024
166	0xbe9c9f4b	-0.3059028
167	0xbea986af	-0.33110568
168	0xbda5b4fb	-0.0809116
169	0xbea111ae	-0.314588
170	0xbe00a335	-0.12562259
171	0xbea4646b	-0.32107863
172	0xbe91482b	-0.28375372
173	0x3e02ad12	0.12761334
174	0xbe46e936	-0.194249
175	0x3d6094d1	0.054829422
176	0x3b046042	0.0020198976
177	0xbe854814	-0.26031554
178	0xbe8fcffe	-0.28088373
179	0x3ddf6a97	0.10909002
180	0x3e2911c4	0.16510683
181	0xbea53ed4	-0.32274497
182	0x3ca26b0f	0.01982644
183	0xbe95553d	-0.29166594
184	0xbea33870	-0.31878996
185	0x3d1630db	0.036667686
186	0xbe86fd09	-0.26364926
187	0xbdadcf5f	-0.084868185
188	0xbe838636	-0.25688332
189	0x3c8fae3f	0.017539142
190	0x3cb2c6db	0.021823337
191	0xbe186b1b	-0.14884607
192	0xbcf201cd	-0.029541874
193	0xbe844583	-0.25834283
194	0x3e5874a2	0.21138242
195	0x3dbbfcab	0.09179052
196	0xbdbb745f	-0.091530554
197	0xbe82ad24	-0.2552272
198	0xbea000a6	-0.31250495
199	0xbe57119c	-0.21002811
200	0xbda10925	-0.07863072
201	0xbe9b1366	-0.30288237
202	0xbe706c4e	-0.23478815
203	0xbdd787d6	-0.105239555
204	0xbdb38009	-0.08764655
205	0xbd441820	-0.04787457
206	0xbe584ae4	-0.21122319
207	0x3d6a3d24	0.057187214
208	0xbd1cd691	-0.038290564
209	0xbe9e200d	-0.30883828
210	0x3d4fea7c	0.05076073
211	0xbea3f09c	-0.32019508
212	0xbe8ee2b8	-0.27907348
213	0xbe9c7733	-0.30559692
214	0xbeada688	-0.33916116
215	0x3d68b7b4	0.056815818
216	0xbdde616e	-0.10858427
217	0xbd9ba299	-0.075993724
218	0xbea463b8	-0.3210733
219	0xbe9d86ae	-0.30766815
220	0xbcd0af47	-0.025474204
221	0xbe41b9c3	-0.18918519
222	0xbeb43820	-0.3519907
223	0xbe07e75a	-0.13271847
224	0x3dd7d3ac	0.1053842
225	0xbdb33b67	-0.087515645
226	0xbe4cd1ac	-0.20001858
227	0x3dc8d9e7	0.098071866
228	0xbe8f88d0	-0.28034067
229	0xbe596978	-0.2123164
230	0xbe089ec8	-0.1334182
231	0xbdb87eff	-0.090085976
232	0x3e5bc074	0.21460134
233	0x3d2115d3	0.039327454
234	0x3d0d3503	0.034474384
235	0xbe8fb3e9	-0.28066948
236	0xbd866b96	-0.06563489
237	0xbdfa66eb	-0.12226661
238	0xbdf7b733	-0.12095489
239	0xbe3c4bdd	-0.18388315
240	0x3dc2e749	0.095167704
241	0xbe248d34	-0.1606949
242	0xbe93767a	-0.28801328
243	0xbddf3956	-0.10899608
244	0xbe6095b1	-0.21932103
245	0x3e064083	0.13110547
246	0xbe88e9aa	-0.26740772
247	0x3dbd3b8f	0.092398755
248	0xbe3faa25	-0.18717249
249	0xbe869a42	-0.26289564
250	0xbdd3b226	-0.103367135
251	0x3e24d042	0.16095069
252	0xbdfb24d3	-0.12262883
253	0xbc8e0109	-0.017334478
254	0xbdfe9ccc	-0.124322504
255	0xbe00016c	-0.12500542
